data/models_output/models_lenet/m_lenet0.pt (torch_old, 249648 bytes, 10 tensors)

c1.weight f4 [6, 3, 5, 5]
0	0xbd441a6a	-0.047876753
1	0xbe73a1cc	-0.2379219
2	0xbde952e4	-0.11392763
3	0xbcf3cbf8	-0.029760346
4	0xbdfdba08	-0.12388998
5	0xbd72c348	-0.059268266
6	0xbcaf7c80	-0.02142167
7	0xbdde36f2	-0.10850324
8	0xbdcb1f5e	-0.09918092
9	0xbe5a72ca	-0.21332851
10	0x3c9e6d96	0.019339364
11	0xbe197b56	-0.14988455
12	0xba004140	-0.00048925355
13	0xbddc22e0	-0.107488394
14	0xbc76a851	-0.015054778
15	0xbdc5f739	-0.096662946
16	0xbdbdaaeb	-0.09261116
17	0xbdab3b0a	-0.0836087
18	0xbdeb626c	-0.11493382
19	0xbc0b5c10	-0.008505836
20	0x3c9998c4	0.018749602
21	0xbd7f491e	-0.06232559
22	0x3d8caca0	0.06868863
23	0xbcce2c71	-0.025167676
24	0x3d33b887	0.04387715
25	0xbe019046	-0.12652692
26	0xbd3cb10c	-0.046067283
27	0xbe5a35f2	-0.21309641
28	0xbe1f15d8	-0.15535676
29	0xbe4e7e96	-0.20165476
30	0x398e2d00	0.00027117878
31	0xbd944597	-0.07239836
32	0xbda3d41c	-0.07999441
33	0xbdd14d5a	-0.10219832
34	0xbe357176	-0.17719063
35	0xbdcfc122	-0.10144259
36	0xbe0d42de	-0.13795039
37	0x3c90c228	0.017670706
38	0xbc8a5e2c	-0.016890608
39	0xbd92ba73	-0.071644686
40	0xbdef1c3e	-0.11675309
41	0xbdb5f072	-0.08883752
42	0x3d151070	0.03639263
43	0xbc7d9f98	-0.015479945
44	0xbe03848b	-0.1284353
45	0xbdad5f86	-0.08465485
46	0xbdbb5ada	-0.09148188
47	0xbd85fa18	-0.06541842
48	0xbd365b64	-0.04452075
49	0xbdf60086	-0.120118186
50	0xbd886c3e	-0.066612706
51	0xbe3050d6	-0.17218336
52	0xbe41a4ba	-0.18910494
53	0xbda29b63	-0.07939794
54	0xbd8e65a7	-0.069529824
55	0xbdf4d97d	-0.11955545
56	0xbc7fdf98	-0.015617274
57	0xbcbf3be0	-0.02334398
58	0xbb5c89a0	-0.0033651367
59	0xbe2542ef	-0.16138814
60	0x3d0d974e	0.034568124
61	0xbe1993ca	-0.14997783
62	0xbd70b93f	-0.058770414
63	0xbe0facda	-0.14030781
64	0x3cc97090	0.024589807
65	0xbc9309dc	-0.017949037
66	0x3d053fed	0.032531668
67	0x3d09bbec	0.033626482
68	0xbe10e4af	-0.14149736
69	0xbc808ea3	-0.015693014
70	0xbdc785d5	-0.09742323
71	0xbdc2134c	-0.09476337
72	0xbdff7d6a	-0.12475093
73	0xbd1b8697	-0.03797015
74	0xbddb5cee	-0.10711084
75	0xc23976d8	-46.36606
76	0xc214e646	-37.224876
77	0xc2160ab3	-37.51045
78	0xc2371c55	-45.777668
79	0xc2559135	-53.391804
80	0xc21c52a1	-39.080692
81	0xc2060753	-33.507153
82	0xc204901e	-33.14074
83	0xc239db8e	-46.46441
84	0xc2852e85	-66.59086
85	0xc22309d7	-40.75961
86	0xc2151c2f	-37.277523
87	0xc204d41b	-33.207134
88	0xc2309ae3	-44.151257
89	0xc28a6797	-69.202324
90	0xc245cf3a	-49.45237
91	0xc22d16af	-43.272152
92	0xc22971c7	-42.36111
93	0xc2538d74	-52.888138
94	0xc28902dd	-68.50559
95	0xc26ee1a4	-59.720352
96	0xc25402f1	-53.002872
97	0xc262ca5a	-56.69761
98	0xc283b605	-65.85551
99	0xc286e587	-67.448296
100	0xc227e306	-41.971703
101	0xc2034fdd	-32.82799
102	0xc2041db5	-33.02901
103	0xc222e975	-40.727985
104	0xc241d1bd	-48.454823
105	0xc20b0011	-34.750065
106	0xc1eb0c12	-29.380894
107	0xc1e43ccb	-28.529684
108	0xc224a7f4	-41.164017
109	0xc272414e	-60.563774
110	0xc21092a7	-36.143215
111	0xc202b7d3	-32.679516
112	0xc1e17503	-28.182135
113	0xc2188268	-38.12735
114	0xc27a279d	-62.538685
115	0xc2324138	-44.56369
116	0xc218602f	-38.09393
117	0xc213c3b0	-36.9411
118	0xc23961e3	-46.345592
119	0xc276f26a	-61.736732
120	0xc25cbe06	-55.18557
121	0xc240b568	-48.177155
122	0xc24c63c5	-51.09743
123	0xc26db098	-59.422455
124	0xc275462f	-61.31854
125	0xc2042578	-33.03659
126	0xc1c50630	-24.628021
127	0xc1c40408	-24.501968
128	0xc1f6b680	-30.839111
129	0xc2157a91	-37.369694
130	0xc1d36727	-26.425367
131	0xc1ae823a	-21.813587
132	0xc1a42f86	-20.523205
133	0xc1f79dbc	-30.952019
134	0xc241780c	-48.367233
135	0xc1daa667	-27.331251
136	0xc1c2f17c	-24.367912
137	0xc19eaaa3	-19.833319
138	0xc1def466	-27.869335
139	0xc2479ea7	-49.904934
140	0xc20a2d57	-34.544277
141	0xc1e088ff	-28.066893
142	0xc1d0c01f	-26.09381
143	0xc207f76f	-33.991634
144	0xc23fec8b	-47.981
145	0xc22ef771	-43.741642
146	0xc2128022	-36.62513
147	0xc218f5fb	-38.240215
148	0xc235c358	-45.440765
149	0xc23c6cc0	-47.1062
150	0xbe290ef5	-0.16509612
151	0xbd86b8f6	-0.06578247
152	0xbcd5e618	-0.026110694
153	0xbe08f39c	-0.1337418
154	0xbe1e54bb	-0.1546201
155	0xbe384ac1	-0.17997266
156	0xbe2d6088	-0.16931355
157	0xbd87a6b6	-0.066235945
158	0xbdf773bd	-0.12082622
159	0xbd17db8c	-0.03707461
160	0xbe28ec9d	-0.16496511
161	0xbd9ca048	-0.07647759
162	0xbddb583a	-0.10710187
163	0xbe7ce823	-0.24697928
164	0xbe0dc5e2	-0.13845018
165	0xbd7a96e1	-0.061179046
166	0xbd57eb86	-0.052714847
167	0x3d0af98e	0.0339294
168	0xbe028ff9	-0.12750234
169	0xbe2be669	-0.16787113
170	0xbd8c8439	-0.06861157
171	0xbc84a8e0	-0.016193807
172	0x3c7fda76	0.01561605
173	0xbc6a740c	-0.014309894
174	0x3b63ad61	0.0034740793
175	0xbe3062d4	-0.172252
176	0xbc32ad17	-0.010905526
177	0xbda3b833	-0.079941176
178	0xbd986852	-0.074417725
179	0xbda1d9e4	-0.079028875
180	0xbdf211b8	-0.11819786
181	0xbe5f47c6	-0.21804723
182	0xbd4a416c	-0.049378797
183	0xbe286151	-0.16443373
184	0xbd2e3a3b	-0.042536
185	0xbe86dfb7	-0.26342556
186	0xbde82cdb	-0.113366805
187	0xbe5f07c3	-0.21780305
188	0xbde1e02e	-0.11029087
189	0xbe38a28a	-0.18030754
190	0xbd1c66bd	-0.038183916
191	0xbbf3d4ee	-0.0074411547
192	0xbda794d5	-0.08182684
193	0x3d44d46a	0.048054136
194	0xbc9a90b6	-0.018867832
195	0x3bb432c0	0.005499214
196	0xbc8544dd	-0.016268188
197	0x3cfaea9d	0.03062945
198	0xbd157801	-0.036491398
199	0xbe0e899d	-0.13919683
200	0xbd78ea04	-0.06077005
201	0xbe1e6bfb	-0.15470879
202	0xbdf58127	-0.119875245
203	0xbddd1c28	-0.10796386
204	0xbdeceac6	-0.11568217
205	0xbdab3430	-0.08359563
206	0xbe3acb32	-0.18241575
207	0xbe135084	-0.14386183
208	0xbdd03386	-0.10166077
209	0xbd317455	-0.043323833
210	0xbe0b7e1b	-0.13622324
211	0xbe0b7ce8	-0.13621867
212	0xbd649471	-0.055805627
213	0xbde2a6cd	-0.11066971
214	0xbe5e48f5	-0.21707518
215	0xbdda3ede	-0.10656522
216	0xbe22ea94	-0.15909797
217	0xbd9ef7b4	-0.07762089
218	0xbe0f75f9	-0.14009847
219	0xbe206202	-0.15662387
220	0x3dc1299d	0.09431765
221	0xbd0ae90c	-0.033913657
222	0x3d7bd853	0.0614856
223	0x3cbb5d13	0.02287153
224	0x3d54eccf	0.05198365
225	0xbffb9f37	-1.9657964
226	0xbfee1bce	-1.8602235
227	0xbfe46915	-1.7844568
228	0xbf8e933a	-1.113868
229	0xbf67510a	-0.9035803
230	0xbfe85b16	-1.8152797
231	0xbfbcc37e	-1.474716
232	0xbf9e8e3c	-1.2387156
233	0xbf58d1ee	-0.8469533
234	0xbf2a8235	-0.6660493
235	0xbfa4ebd6	-1.2884471
236	0xbf39c416	-0.7256483
237	0xbe9fa97e	-0.31184
238	0xbeebf782	-0.4608727
239	0xbf1f82aa	-0.6230875
240	0xbf35ffb7	-0.71093315
241	0xbec85761	-0.39129165
242	0xbe9dab81	-0.3079491
243	0xbeb233a2	-0.34805018
244	0xbf2d8344	-0.6777842
245	0xbef8c2d0	-0.4858613
246	0xbe9e9c26	-0.30978507
247	0xbe9ebb6a	-0.3100236
248	0xbec35c9f	-0.38156602
249	0xbf1b6ba2	-0.6071111
250	0xbfcbf4cb	-1.593408
251	0xbfd3a16e	-1.653364
252	0xbfbc8b32	-1.4729979
253	0xbf65a9c2	-0.89712155
254	0xbf18eed8	-0.59739447
255	0xbfc1b6cc	-1.513391

c1.bias f4 [6]
0	0xbc1afeab	-0.009460132
1	0xbed50cdb	-0.4161137
2	0xbd66adef	-0.05631822
3	0x3ca1f3c6	0.01976956
4	0xbd9a5baa	-0.07537015
5	0x3d8b33c0	0.0679698

c3.weight f4 [16, 6, 5, 5]
0	0x3bc48104	0.005996825
1	0x3b4566a0	0.0030120984
2	0xbd8db6dc	-0.06919643
3	0xbc80d30f	-0.01572564
4	0x3c282e25	0.010264908
5	0x3cefeb5b	0.02928703
6	0xbd90f7a6	-0.07078485
7	0xbd64930b	-0.055804294
8	0xbdaf6933	-0.08564987
9	0x3bc20c22	0.0059218565
10	0xbd11c288	-0.03558591
11	0xbcf5ed0e	-0.030020263
12	0xbda466eb	-0.080274425
13	0x3d55f538	0.052235812
14	0x3ccd8023	0.025085514
15	0xbc4c7257	-0.012478433
16	0x3c947c49	0.01812567
17	0xbca6f0c2	-0.020378474
18	0xbd828370	-0.06372726
19	0x3d87078a	0.06593235
20	0xbd7ad8fd	-0.061242092
21	0xbd2468a3	-0.04013885
22	0xbbf3f798	-0.007445287
23	0x3d083dab	0.033261936
24	0x3d7f7dc8	0.062375814
25	0xbebf5559	-0.37369803
26	0xbf2f5bc3	-0.6849939
27	0xbef052ca	-0.46938163
28	0xbec91e41	-0.39280894
29	0xbec0942e	-0.37613052
30	0xbee8b6ab	-0.45451865
31	0xbf482dc8	-0.78194857
32	0xbf0e4f6e	-0.5558995
33	0xbf5b21aa	-0.8559824
34	0xbf1338f4	-0.5750878
35	0xbec23650	-0.37932062
36	0xbf5895ba	-0.84603465
37	0xbecbd823	-0.39813337
38	0xbf76fe63	-0.96481913
39	0xbf4b7d10	-0.79487705
40	0xbed6c0c6	-0.4194395
41	0xbf895f5c	-1.0732226
42	0xbf003493	-0.5008022
43	0xbec50787	-0.38482305
44	0xbee9b451	-0.45645383
45	0xbedd6f38	-0.43248916
46	0xbf88f17d	-1.0698696
47	0xbf168cff	-0.5880889
48	0xbe4a4e88	-0.1975652
49	0xbedd813b	-0.43262658
50	0xbe1c0685	-0.15236862
51	0xbe638c95	-0.22221597
52	0xbe141262	-0.14460137
53	0xbe07c3cf	-0.13258289
54	0xbe179de8	-0.1480633
55	0xbe450883	-0.19241528
56	0xbe1b4ab0	-0.1516521
57	0xbe336441	-0.17518713
58	0xbe32b2ea	-0.17451063
59	0xbe5d7b12	-0.21628979
60	0xbe40b948	-0.18820679
61	0xbe0300c2	-0.12793258
62	0xbe2e3123	-0.17010932
63	0xbdd0f226	-0.10202436
64	0xbe4102a4	-0.18848664
65	0xbe1cc454	-0.15309268
66	0xbe5e23d3	-0.21693353
67	0xbe6c0cb4	-0.23051721
68	0xbe614f32	-0.22002867
69	0xbe3843b8	-0.17994583
70	0xbe414c67	-0.18876801
71	0xbe008255	-0.12549718
72	0xbe263bb0	-0.16233706
73	0xbe8b9b90	-0.27267122
74	0xbe5ff399	-0.21870269
75	0x3d235d9e	0.039884202
76	0x3d6b8126	0.057496212
77	0xbd628e32	-0.05531139
78	0x3d19e7fb	0.03757475
79	0xbd9f89a9	-0.077899285
80	0x3cca0d69	0.024664598
81	0xbd56de7f	-0.052458283
82	0x3d377910	0.04479319
83	0xbda5f82f	-0.08103978
84	0x3b0aee54	0.0021199184
85	0x3d23bfb4	0.039977744
86	0xbd1f34a5	-0.038868565
87	0xbd893f16	-0.06701486
88	0xbd5e268d	-0.054235984
89	0xbd1d380a	-0.03838352
90	0x3d66c113	0.056336474
91	0xbd6daeb2	-0.05802793
92	0x3d863ed5	0.06554953
93	0xbd876110	-0.0661031
94	0x3caa77dd	0.020809108
95	0x3d26461c	0.040594205
96	0x3d46372e	0.048392467
97	0x3ab85e38	0.0014066165
98	0xbca0728f	-0.019585876
99	0xbd5dba92	-0.054133005
100	0xbe637713	-0.22213392
101	0xbe99aec3	-0.30016145
102	0xbe7b2477	-0.24525629
103	0xbe82b9c5	-0.25532356
104	0xbe9e3d09	-0.3090594
105	0xbe91dc0a	-0.2848819
106	0xbe24895d	-0.16068025
107	0xbe900a10	-0.28132677
108	0xbe97499a	-0.2954834
109	0xbe86fe75	-0.2636601
110	0xbe447bf4	-0.1918791
111	0xbe52fd16	-0.20604357
112	0xbe1dc62f	-0.15407632
113	0xbe590a24	-0.21195275
114	0xbe71df8e	-0.23620436
115	0xbe63dcd5	-0.2225221
116	0xbe232d4c	-0.15935248
117	0xbe521873	-0.20517139
118	0xbe3e484f	-0.18582271
119	0xbe88914a	-0.26673347
120	0xbe6b8374	-0.22999364
121	0xbe6dd8e0	-0.23227262
122	0xbe66361d	-0.2248158
123	0xbe916852	-0.28399903
124	0xbe66c8e3	-0.2253757
125	0x3b62b660	0.0034593567
126	0xbc27c2f0	-0.010239348
127	0xbdd8d9b0	-0.105883956
128	0xbd8bc5c7	-0.068248324
129	0xbd697e3c	-0.057005152
130	0xbd6e00d6	-0.058106266
131	0xbcaba628	-0.020953253
132	0x3c58a290	0.013222352
133	0xbd3b03f2	-0.04565806
134	0x3bd966e0	0.006634578
135	0xbbe46828	-0.006970424
136	0xbd41024e	-0.04712134
137	0xbd8bf12b	-0.068331085
138	0xbd769c32	-0.060207553
139	0xbd9dbf1e	-0.07702468
140	0xbd371f5a	-0.044707634
141	0xbdfc483e	-0.123184666
142	0xbda5e93e	-0.08101128
143	0xbc8dc1c8	-0.017304316
144	0xbdd5c813	-0.10438552
145	0xbc9782c4	-0.018494971
146	0xbdc30458	-0.09522313
147	0xbdc6e564	-0.097117215
148	0xba30b940	-0.00067414716
149	0x3c8a0dca	0.016852278
150	0xbdb412e5	-0.08792666
151	0xbd8e47c1	-0.0694728
152	0xbdcad092	-0.09903063
153	0x3d876c0a	0.06612404
154	0xbd8eedf6	-0.06978981
155	0xbdabf40c	-0.083961576
156	0x3c959ce6	0.018263292
157	0xbdbbb2d0	-0.09164965
158	0xbb8fe68c	-0.004391497
159	0x3d3b0c15	0.04566582
160	0xbcbc39ae	-0.022976723
161	0x3d20b3cb	0.039233964
162	0x3d8b859c	0.06812593
163	0xbcc72c0c	-0.024312995
164	0xba630480	-0.00086600333
165	0xbddc4da7	-0.107569985
166	0xbd794811	-0.060859744
167	0xbd1f47fe	-0.038887016
168	0xbd0c5425	-0.034259934
169	0xbd190b6b	-0.037364405
170	0xbcb26d90	-0.02178076
171	0x3cb53e10	0.02212432
172	0x3c8a95a6	0.016917061
173	0x3d23b810	0.039970458
174	0x3c05a3d2	0.008156734
175	0xc02ab414	-2.667241
176	0xbf927177	-1.1440877
177	0xbfafcc6a	-1.3734257
178	0xbf6c9c0c	-0.9242561
179	0xc0294051	-2.6445506
180	0xbff7f47e	-1.9371488
181	0xbf96b01a	-1.1772492
182	0xc0431a41	-3.0484774
183	0xbfd1ca55	-1.6389872
184	0xc04457bd	-3.0678551
185	0xc00b9fe5	-2.1816342
186	0xbfb7abf7	-1.4349355
187	0xc059fb48	-3.405962
188	0xbfafc042	-1.3730547
189	0xc008af1b	-2.1356876
190	0xc00c8d51	-2.1961253
191	0xbfb820dd	-1.4385029
192	0xc018b4bb	-2.386031
193	0xc038dfdf	-2.888664
194	0xc01612ca	-2.3448968
195	0xc02a1c77	-2.6579874
196	0xbfa591d5	-1.293513
197	0xc04900d6	-3.140676
198	0xc07776bc	-3.866622
199	0xbfffe309	-1.9991161
200	0xbe60eb24	-0.21964699
201	0xbdd79f2e	-0.10528408
202	0xbe1cf30f	-0.15327094
203	0xbe19c748	-0.15017426
204	0xbe0cd1be	-0.13751885
205	0xbdbf19c0	-0.09331083
206	0xbdb0742c	-0.08615908
207	0xbe0a8a54	-0.1352933
208	0xbe18c141	-0.1491747
209	0xbda100f4	-0.0786151
210	0xbe1f2454	-0.15541202
211	0xbd5fd45c	-0.05464588
212	0xbe18c46d	-0.1491868
213	0xbe376ad7	-0.1791185
214	0xbe32fec0	-0.17479992
215	0xbdf0ddaf	-0.11761033
216	0xbdc63e50	-0.09679854
217	0xbdda04c5	-0.10645441
218	0xbdd18899	-0.10231132
219	0xbd8b6883	-0.068070434
220	0xbe295af5	-0.16538604
221	0xbe258ece	-0.16167757
222	0xbdad4a2c	-0.08461413
223	0xbe2b5654	-0.1673215
224	0xbe1166c2	-0.14199355
225	0xbdd4d546	-0.10392241
226	0x3ba49640	0.005022794
227	0xbdfe2332	-0.12409057
228	0xbe025c97	-0.12730633
229	0xbd9a385c	-0.07530281
230	0xbcaca304	-0.021073826
231	0xbc91b338	-0.017785653
232	0xbd2139fa	-0.03936193
233	0xbd96efa0	-0.073699236
234	0xbd5210d6	-0.051285587
235	0xbda1cc48	-0.07900292
236	0xbd49aeb4	-0.049238876
237	0x3cdc56d0	0.026896864
238	0xbd4193dd	-0.047260154
239	0xbdb6d293	-0.089268826
240	0xbc292c20	-0.010325462
241	0xbc8259ca	-0.015911955
242	0xbbc06060	-0.005870864
243	0xbd791576	-0.060811482
244	0xbc1ecea5	-0.009692823
245	0xbda71d77	-0.08159917
246	0xbd1792e1	-0.03700531
247	0x3d0c61ee	0.03427308
248	0xbb816bf8	-0.0039496385
249	0xbddb2a6c	-0.10701451
250	0xbe674136	-0.2258347
251	0xbe464b42	-0.19364646
252	0xbe850063	-0.25976858
253	0xbdc0028e	-0.09375487
254	0xbe27d756	-0.16390738
255	0xbe5a9a88	-0.21348011

c3.bias f4 [16]
0	0xbe13be5f	-0.1442809
1	0xbf2bfb3e	-0.6718024
2	0xbe7fc80c	-0.24978656
3	0x3d925643	0.07145359
4	0xbe24b55f	-0.16084813
5	0xbe0df5c6	-0.13863286
6	0xbd11d560	-0.03560388
7	0xbf3b85de	-0.7325114
8	0xc00d6f63	-2.2099235
9	0xbf921eee	-1.1415689
10	0xbe40480e	-0.18777487
11	0xbd5c9239	-0.053850386
12	0xbdb2f228	-0.08737594
13	0xbd5b183c	-0.05348991
14	0xbfe71179	-1.8052207
15	0xbef5ce8a	-0.4800914

c5.weight f4 [120, 400]
0	0x3b556af1	0.0032564963
1	0xbc8f468f	-0.0174897
2	0xbd38717f	-0.045030113
3	0xbc61d8ec	-0.013784628
4	0xbb90dac9	-0.0044206125
5	0xbb94021d	-0.0045168535
6	0x3c82ef7e	0.01598334
7	0x3c3d1d7f	0.011542677
8	0xbc30af03	-0.010783914
9	0xbb0f35b4	-0.0021852078
10	0x3d099130	0.033585727
11	0x3c9f12a9	0.019418078
12	0xbd495b92	-0.049159594
13	0xbc801654	-0.015635647
14	0x3bde88dc	0.0067912173
15	0xbd077d99	-0.033078764
16	0x3d267ad8	0.040644497
17	0xbcd192a6	-0.025582623
18	0x3d29a2d6	0.041415058
19	0x3d16a8ac	0.03678195
20	0xbd18c596	-0.037297808
21	0xbafbd360	-0.0019212775
22	0x3cb4bd68	0.022062972
23	0x3ac22d5c	0.0014814544
24	0x3baac4ea	0.0052114623
25	0x3ce3c9ed	0.027806247
26	0xbd4a12c0	-0.049334288
27	0x3ce253df	0.027627883
28	0x3b9ae238	0.0047266744
29	0xbc69f26e	-0.014278991
30	0xbcba38bd	-0.022732133
31	0xbc10ec24	-0.008845363
32	0x3c3625b9	0.011117392
33	0xbc1dcddc	-0.0096316
34	0x3d34a0b6	0.04409858
35	0xbd60fb65	-0.05492725
36	0xbcf8a834	-0.030353643
37	0xbc80d96d	-0.015728677
38	0xbcb478f2	-0.022030327
39	0x3cd4397a	0.025906313
40	0xbd3f017d	-0.04663228
41	0x3ca6bc0c	0.02035334
42	0xbcce2b34	-0.025167085
43	0xbcc5ea66	-0.024159621
44	0xbc381e31	-0.011237667
45	0xbcb3954c	-0.021921776
46	0xbd035770	-0.03206581
47	0xbd2261b2	-0.03964395
48	0xbb01ee3e	-0.0019825841
49	0x3bb3dc0e	0.005488879
50	0x3d27628e	0.040865473
51	0xbd4701ce	-0.048585705
52	0x3d2692a3	0.040667187
53	0x3cd518d5	0.026012817
54	0xbc35b40a	-0.011090288
55	0x3c93c042	0.018036012
56	0xbd2d75d6	-0.042348705
57	0x3aac1eef	0.0013131778
58	0xbc741bf8	-0.014899246
59	0x3bd2694f	0.006421245
60	0x3cfad41a	0.030618716
61	0xbb3b52b2	-0.0028583226
62	0x3cf28f12	0.029609237
63	0xbcbcb42f	-0.023035137
64	0x3d0deff4	0.034652665
65	0xbd153c9f	-0.036434766
66	0xbd318aae	-0.043345146
67	0x38c77318	9.510497e-05
68	0xbcdd7ff8	-0.02703856
69	0xbc9dda2f	-0.019269077
70	0xba035b60	-0.00050108694
71	0x3c390ba4	0.011294279
72	0xbc902908	-0.01759769
73	0xbd4ae447	-0.04953411
74	0xbc9d5a9a	-0.019208241
75	0x3a6ba0ef	0.00089885195
76	0x3d0ee840	0.03488946
77	0xbcf41d62	-0.029799167
78	0x3ce41b90	0.027845174
79	0xbb78c521	-0.0037959295
80	0xbcfae3d9	-0.030626224
81	0xbc3c406b	-0.011489968
82	0x3d0c83d9	0.034305427
83	0xbd35852f	-0.044316467
84	0x3d0ef8ba	0.034905173
85	0xbcdbc91d	-0.026829297
86	0xbd473445	-0.048633832
87	0xbc429b6a	-0.011877874
88	0x3c503df5	0.012710084
89	0x3d48f4b9	0.04906151
90	0xbca9ea87	-0.020741714
91	0xbd1a632f	-0.037692245
92	0xbc4eb415	-0.012616177
93	0xbb6c5523	-0.0036061488
94	0xbce16edd	-0.027518684
95	0xbb0bc466	-0.002132678
96	0xbd12840d	-0.035770465
97	0x3d37523c	0.04475616
98	0xbc9b976d	-0.018993104
99	0x3cdf2de5	0.027243564
100	0xbc4377f6	-0.011930456
101	0xbd09f53a	-0.033681132
102	0x3cb44b07	0.022008432
103	0xbbe3500f	-0.006937034
104	0xbc1349f7	-0.008989803
105	0xbae59400	-0.0017515421
106	0xbceb2fe7	-0.028709365
107	0xbd317538	-0.04332468
108	0xbd14e1b9	-0.03634808
109	0xbcc7c0d0	-0.024383932
110	0xbb9c410b	-0.004768496
111	0xbd0510c1	-0.03248668
112	0xbd2fece6	-0.042950533
113	0x3d268a32	0.040659137
114	0xbcffaade	-0.031209406
115	0x3d3f09f3	0.046640348
116	0x3c29c37e	0.01036155
117	0x3d167a31	0.036737625
118	0x3d0f2e58	0.034956306
119	0xbb31c019	-0.0027122556
120	0xbd39b36d	-0.04533713
121	0x3bfe4a71	0.007760339
122	0xbd23301e	-0.03984081
123	0x3cd31d6e	0.02577087
124	0xbc96ba99	-0.018399524
125	0x3cb363be	0.021898147
126	0x3d479f92	0.048736162
127	0xbd053bc5	-0.032527704
128	0xbbc38ea3	-0.0059679314
129	0xbd31b25b	-0.043382984
130	0xbcb01c37	-0.021497829
131	0xbd4340c7	-0.0476692
132	0x3d09212e	0.03347891
133	0x3c6aef13	0.014339226
134	0xbc5bf67c	-0.013425466
135	0xbd28770d	-0.04112916
136	0x3c83043b	0.015993228
137	0xbc16f64e	-0.009213997
138	0x3b68be26	0.0035513728
139	0xbd124aa1	-0.035715703
140	0xba9ea10a	-0.0012102437
141	0xbc780611	-0.015138165
142	0xbac0eb9a	-0.0014718652
143	0xbcf60322	-0.03003079
144	0x3d248e0e	0.040174536
145	0x3d059e67	0.032621767
146	0xbc6cc414	-0.014451046
147	0xbcbf64a2	-0.023363415
148	0x3d22fb9c	0.039790735
149	0xbd2c53d5	-0.042072136
150	0x3d379bbf	0.044826265
151	0x3cc15a90	0.023602754
152	0x3d248571	0.040166322
153	0x3bbddb66	0.0057939766
154	0x3bed8cc9	0.007249449
155	0x3d22483f	0.03961968
156	0x3c26f99e	0.010191349
157	0xbd27ec71	-0.040996972
158	0x3b9000db	0.004394633
159	0x3d0f5c1d	0.034999955
160	0xbd2c886d	-0.042122293
161	0x3c53d47c	0.012929078
162	0xbd4a6618	-0.04941377
163	0xbd052a1e	-0.03251087
164	0xbd1d2e73	-0.038374376
165	0x3c9387b2	0.01800904
166	0x3bb18a40	0.005418092
167	0xbbb959e8	-0.0056564696
168	0xbd0727b2	-0.03299684
169	0xbd375e28	-0.04476753
170	0xbb91c2f0	-0.004448287
171	0x3d16ad93	0.036786627
172	0xbb2c9e50	-0.0026339479
173	0xbbf52198	-0.0074808113
174	0x3d16bc71	0.036800805
175	0xbca1bb1e	-0.019742545
176	0xbd057c0e	-0.03258901
177	0x3d2922fb	0.041293126
178	0xbc2dce92	-0.010608332
179	0xbd234c32	-0.039867587
180	0xbc10d942	-0.008840861
181	0x3ccdb2b4	0.025109626
182	0xbcd2f2e5	-0.025750587
183	0x3a9298f8	0.0011184504
184	0xbd340544	-0.043950334
185	0x3c60bf1c	0.013717439
186	0x3c874767	0.01651354
187	0x3ca3db39	0.020001994
188	0xbd1d7524	-0.038441792
189	0x3cc2bd5c	0.023771934
190	0x3c6eba40	0.014570773
191	0x3befd860	0.007319495
192	0x3ccaf36c	0.024774276
193	0x3c94e47e	0.01817536
194	0xbc8015b4	-0.015635349
195	0xbd1bbff2	-0.03802485
196	0x3cb02358	0.021501228
197	0xbc6e9560	-0.014561981
198	0xbd2695de	-0.04067027
199	0xbc09714c	-0.0083888285
200	0xbc042460	-0.008065313
201	0xbd56e824	-0.05246748
202	0x3c5c926a	0.013462642
203	0xbbc1d4d4	-0.0059152637
204	0xbd50ffd6	-0.051025234
205	0x3ca690cf	0.020332722
206	0xbc1a5072	-0.009418594
207	0xbd6aa408	-0.05728534
208	0xbd608daa	-0.0548226
209	0xbd5ae4f8	-0.053441018
210	0x3cbac1df	0.022797523
211	0xbd77433c	-0.060366854
212	0x3cdaceb7	0.026709897
213	0xbbf361b4	-0.0074274186
214	0xba8710b0	-0.0010304656
215	0xbd842b6e	-0.06453596
216	0xbc4a4a7e	-0.012346862
217	0xbcaac1f0	-0.02084443
218	0x3c94675d	0.018115694
219	0xbcc21c54	-0.023695149
220	0xbd35fe6c	-0.04443209
221	0x3ce4aad5	0.02791349
222	0xbcd629bc	-0.026142947
223	0xbd63fa42	-0.055658586
224	0xbd217871	-0.039421503
225	0xbcc6b470	-0.024255961
226	0x3d1c1d66	0.038113974
227	0xbcfdff84	-0.031005628
228	0xbba36c84	-0.0049873013
229	0x3cc9e646	0.024645936
230	0x3bd0b426	0.0063691316
231	0xbcc37526	-0.023859572
232	0xbc95bc7b	-0.018278351
233	0x3c853cba	0.016264308
234	0xbd235667	-0.03987732
235	0xbd08d439	-0.033405516
236	0xbce1664b	-0.027514597
237	0x3cfc0820	0.030765593
238	0xbd0ae365	-0.033908267
239	0x3c304af3	0.010760057
240	0x3cc44c6f	0.023962228
241	0xbd24d725	-0.04024424
242	0xbcc83d90	-0.024443418
243	0xbbbccf53	-0.0057620197
244	0x3cd33cb4	0.025785781
245	0xbd02225c	-0.03177105
246	0xbd6a867a	-0.057257153
247	0x3ca71070	0.02039358
248	0x3d1376ca	0.036001958
249	0x3c3d60cd	0.011558724
250	0x3b68d894	0.0035529481
251	0xbb295a33	-0.0025841116
252	0x3cf195de	0.029490408
253	0x3c41388a	0.011793265
254	0xbcf29da6	-0.029616188
255	0xbc9c0820	-0.019046843

c5.bias f4 [120]
0	0x3bd9411d	0.0066300766
1	0xbde0e2ac	-0.10980734
2	0xbd1334bc	-0.035938963
3	0xbb434170	-0.0029793642
4	0xbc1f394c	-0.0097182505
5	0xbd3b5fb7	-0.045745578
6	0xbcf2eff9	-0.029655444
7	0xbd86476a	-0.0655659
8	0xbcd291c6	-0.025704276
9	0xbc77bcfe	-0.015120743
10	0xbd55ab02	-0.05216504
11	0x3d02a3be	0.031894438
12	0xbb06dc58	-0.0020578112
13	0x3b3f252e	0.0029166448
14	0xbcced2ef	-0.025247065
15	0xbd197b0b	-0.03747086
16	0x3bb1edf3	0.005429977
17	0xbbd35f8e	-0.0064506
18	0x3c67260e	0.014108194
19	0xbd45b1aa	-0.048265137
20	0x3c430477	0.01190292
21	0x3d57acf1	0.052655164
22	0xbc8adea7	-0.016951872
23	0xbd2492d1	-0.040179078
24	0x3cb292bb	0.021798482
25	0x3d630bdc	0.05543123
26	0x3d02340e	0.031787924
27	0x3ba50b83	0.0050367727
28	0xbd10c12a	-0.035340466
29	0xbd2d7702	-0.042349823
30	0x3b6dd780	0.0036291778
31	0xbcf74471	-0.030184003
32	0xbd7f7a8c	-0.06237273
33	0xbd0c8fd5	-0.034316856
34	0x3d2e45a1	0.042546872
35	0xbd4ae06f	-0.049530443
36	0xbc5eb6bc	-0.013593372
37	0xbdd360f1	-0.103212245
38	0x3c5c4939	0.013445192
39	0xbd7338e2	-0.05938042
40	0xbd4b6897	-0.04966029
41	0xbcb23c54	-0.021757282
42	0xbc846574	-0.016161658
43	0xbd527ca2	-0.05138839
44	0xbcab647a	-0.020921934
45	0xbd0236f7	-0.0317907
46	0x3d315bb0	0.04330033
47	0x3d03a71e	0.032141797
48	0xbd9b969b	-0.07597085
49	0xbd4829b5	-0.0488679
50	0x3cccdbff	0.025007246
51	0xbd24ba04	-0.04021646
52	0x3bed1cd6	0.0072361035
53	0x3cf91138	0.030403718
54	0xbd2f001e	-0.04272472
55	0x3a2cf495	0.0006597725
56	0xbd1e28e9	-0.038613234
57	0xbe501be3	-0.20323138
58	0xbcf927d0	-0.030414492
59	0x3cc685fd	0.024233812
60	0xbde9627a	-0.11395736
61	0xbc322400	-0.010872841
62	0x3d425758	0.04744658
63	0x3c53cacc	0.0129267685
64	0xbc0c4a74	-0.008562673
65	0xbb1f3777	-0.0024294534
66	0xbb311580	-0.0027020872
67	0xbe5a1114	-0.21295577
68	0x3c04fde7	0.008117176
69	0xbc81a5e9	-0.015826182
70	0xbd0866f9	-0.033301327
71	0x3bd3e322	0.0064662853
72	0x3c41ca8d	0.011828077
73	0x3da2ea19	0.07954807
74	0xbd4f24ac	-0.050572082
75	0xbc4e02ae	-0.012573881
76	0x3d6dc30d	0.058047343
77	0xbd4a9ddf	-0.049466964
78	0xbd45dac1	-0.048304323
79	0xbc987ad1	-0.01861325
80	0xbdd9cbcd	-0.10634575
81	0x3d61feaa	0.055174507
82	0xbd17cb21	-0.037058953
83	0xbc8be646	-0.017077576
84	0xbb743e55	-0.0037268598
85	0xbd9f5e06	-0.077816054
86	0xbe08e081	-0.13366891
87	0x3d33f2a7	0.043932583
88	0x3d37d73f	0.04488301
89	0xbb1a4dbb	-0.0023544866
90	0xbc3d77d2	-0.011564212
91	0xbbebe858	-0.0071993284
92	0xbd106414	-0.035251692
93	0xbd6428d1	-0.055702988
94	0x3d68749c	0.056751832
95	0xbd3773e0	-0.04478824
96	0xbc749f6f	-0.01493059
97	0xbc9d1461	-0.019174756
98	0xbdc04288	-0.0938769
99	0xbcdddff8	-0.027084336
100	0xbd232fb2	-0.039840408
101	0x3d03c6ab	0.032171886
102	0x3d55becb	0.052183907
103	0x3d909cf8	0.070611894
104	0x3acea365	0.0015765248
105	0x3d59ed38	0.053204745
106	0xbd0d6872	-0.034523435
107	0xbce340cc	-0.027740858
108	0xbc086198	-0.008324049
109	0x3dac1857	0.0840308
110	0xbd8738cc	-0.0660263
111	0xbe0909d2	-0.13382652
112	0xbd04c196	-0.03241118
113	0xbc38b9e0	-0.011274785
114	0xbd1e2e3e	-0.03861832
115	0xbd2382b6	-0.039919578
116	0xbc7da9f0	-0.015482411
117	0x3c966227	0.01835735
118	0x3d018b53	0.03162701
119	0xbc886885	-0.016651401

f6.weight f4 [84, 120]
0	0x3db22b43	0.08699658
1	0xbdb4a91b	-0.08821317
2	0xbd9ba342	-0.07599498
3	0x3c732446	0.014840191
4	0x3d00ef54	0.03147824
5	0xbc8a5c33	-0.016889667
6	0xbdb304f7	-0.08741181
7	0xbda3e1a0	-0.08002019
8	0xbd201675	-0.039083917
9	0xba42dbb2	-0.000743325
10	0xbdef8c20	-0.116966486
11	0x3d9d83d7	0.07691162
12	0x3dbff9a3	0.09373786
13	0xbde9616a	-0.113955334
14	0x3d9a2e82	0.07528402
15	0xbdafc2ab	-0.08582052
16	0x3b74485c	0.0037274575
17	0x3d412952	0.047158547
18	0x3aa7708c	0.001277463
19	0xbb4983b0	-0.0030748658
20	0x3d84fd87	0.06493669
21	0x3ba7a9f7	0.005116697
22	0xbd30ce08	-0.043165237
23	0x3c72cc39	0.014819198
24	0xbcfdd955	-0.030987421
25	0x3d595719	0.05306158
26	0x3da1f0f1	0.07907284
27	0xbc894fc7	-0.016761674
28	0x3c74b2f4	0.014935244
29	0xbd9501bf	-0.07275724
30	0xbd8805ac	-0.06641707
31	0xbcb0bfea	-0.021575887
32	0xba60d8b0	-0.0008577211
33	0xbd4bcb6a	-0.049754538
34	0x3cf60b17	0.030034585
35	0xbbeb10ce	-0.007173634
36	0xbdaec631	-0.08533896
37	0xbd91fc2c	-0.07128176
38	0x3cc2bb76	0.023771029
39	0xbd9e7615	-0.07737366
40	0xbcb848fd	-0.022495741
41	0xbd771066	-0.060318373
42	0xbcc374be	-0.023859378
43	0xbdb0b283	-0.086277984
44	0x3d56a9bd	0.05240797
45	0xbd3a609a	-0.045502283
46	0x3d86d412	0.06583418
47	0x3d22722e	0.03965967
48	0xbd7a2074	-0.061066106
49	0xbc2d0b36	-0.010561755
50	0xbcc456c0	-0.023967147
51	0x3db4fd59	0.08837385
52	0x3d8bd1f1	0.068271525
53	0x3c55746c	0.013028245
54	0xbda6f26d	-0.08151708
55	0xbd0f07b8	-0.03491947
56	0xbd9346be	-0.071912274
57	0xbd1de574	-0.0385489
58	0x3da775e8	0.08176786
59	0xbc524c9d	-0.012835649
60	0xbdce2293	-0.10065188
61	0x3d1e3138	0.038621157
62	0xbd29293b	-0.041299086
63	0xbcfb89a5	-0.030705282
64	0x3da1c5b1	0.07899035
65	0xbd2f341f	-0.042774316
66	0xbc055448	-0.00813777
67	0xbd6e1f40	-0.05813527
68	0x3ca0c5f3	0.01962564
69	0x3dad81e2	0.08472039
70	0x3d82fdca	0.06396063
71	0xbd625573	-0.055257272
72	0xbbf7aa74	-0.0075581614
73	0xbd0ea66a	-0.034826674
74	0x3d91ce5a	0.071194366
75	0x3b923580	0.004461944
76	0x3cd56cf5	0.026052931
77	0xbdf61496	-0.12015645
78	0x3d0899c1	0.033349756
79	0x3da0e37c	0.07855889
80	0xbd2c9c80	-0.042141438
81	0xbc21b30f	-0.009869351
82	0xbde57822	-0.11204554
83	0x3d6195af	0.05507439
84	0xbd5d87df	-0.054084655
85	0xbd68d215	-0.056840975
86	0xbc56ae28	-0.0131030455
87	0x3c656de0	0.014003247
88	0x3d2d32fb	0.042284947
89	0xbd8a886d	-0.067643024
90	0x3cd2797a	0.02569269
91	0xbd9c20b8	-0.07623428
92	0xbca93111	-0.02065328
93	0xbd4ad9e4	-0.049524203
94	0x3d1cab78	0.038249463
95	0xbe551a3e	-0.20810792
96	0x3cf9a62c	0.030474745
97	0x3d9d2d20	0.076746225
98	0xbd82d7e6	-0.063888356
99	0xbe3fb607	-0.18721782
100	0x3d0e0936	0.034676753
101	0x3d7421c1	0.059602503
102	0xbdc7be78	-0.09753126
103	0x3d99423a	0.07483335
104	0xbcd60f41	-0.02613032
105	0xbd3907bc	-0.04517339
106	0xbd5ffbc4	-0.05468346
107	0xbdb30f22	-0.08743121
108	0x3c20628f	0.009789123
109	0x3c395a88	0.011313088
110	0x3c7d2fa0	0.015453249
111	0xbd26791f	-0.040642854
112	0x3d5b4e8f	0.053541716
113	0xbd292784	-0.04129745
114	0x3d56af18	0.052413076
115	0x3d34a0b3	0.044098567
116	0x3d145a09	0.036218677
117	0xbda0c694	-0.07850376
118	0xbd03ff83	-0.032226097
119	0xbd1a0784	-0.037604824
120	0x3b480250	0.0030518956
121	0xbdf455ad	-0.11930404
122	0x3cfc739b	0.030816844
123	0x3d33b03c	0.043869242
124	0x3d229561	0.03969324
125	0x3c78d538	0.015187554
126	0x3d74bb21	0.059748773
127	0xbd59cf58	-0.053176254
128	0x3b2d0800	0.0026402473
129	0xbdde2b29	-0.10848076
130	0xbdab8b16	-0.08376138
131	0x3b73b300	0.003718555
132	0xbc956443	-0.018236285
133	0x3bbb7324	0.005720513
134	0x3c099dcf	0.008399441
135	0x3d276e78	0.040876836
136	0xbda588aa	-0.08082707
137	0xbd607941	-0.054803137
138	0xbc905f9c	-0.017623715
139	0x3cd78e72	0.02631304
140	0xb9cd4300	-0.00039150566
141	0x3c350db0	0.011050627
142	0xbda28230	-0.079349875
143	0xbd1996b8	-0.037497252
144	0x3d176bb8	0.036967963
145	0x3daaf344	0.083471805
146	0x3d38fa83	0.04516078
147	0xbd91ad6f	-0.07113158
148	0xbd963ab5	-0.07335416
149	0xbd7854bf	-0.060627695
150	0x3bdf3298	0.006811451
151	0x3d3dd5e1	0.04634655
152	0x3db09ba4	0.08623436
153	0xbc99e6a1	-0.01878673
154	0xbd450077	-0.048096146
155	0xbd879418	-0.066200435
156	0xbcbb0b1b	-0.022832444
157	0x3d7a79a6	0.06115117
158	0xbcf2e251	-0.029648932
159	0x3cb6b7f9	0.022304522
160	0xbc294858	-0.0103321895
161	0x3ce7874d	0.028262759
162	0x3c9eb675	0.019374112
163	0xbd70d260	-0.05879438
164	0xbd8f7e77	-0.07006543
165	0x3d0974cd	0.033558656
166	0x3c1a26f0	0.0094086975
167	0xbd3b1cf1	-0.045681898
168	0xbd98a534	-0.07453385
169	0xbdb9ee4d	-0.090786554
170	0xbd16c352	-0.036807366
171	0xbc9f6abd	-0.019460076
172	0xbae190ad	-0.0017209254
173	0xbc0fa459	-0.008767211
174	0x3ba75ec0	0.0051077306
175	0x3d995599	0.074870296
176	0xbd68e702	-0.05686093
177	0xbd96b030	-0.07357824
178	0xbe049b74	-0.12949926
179	0x3c53d664	0.012929533
180	0x3d3a8f0b	0.045546573
181	0x3d34f1d4	0.044175938
182	0xbcad42f8	-0.021150097
183	0xbcc409ca	-0.023930449
184	0xbd5d9a96	-0.054102503
185	0x3c0b13a4	0.008488569
186	0x3c278614	0.010224838
187	0xbe2c1fcb	-0.16809003
188	0x3d45d1a8	0.048295647
189	0xbd1bad17	-0.03800687
190	0xbdeaae6e	-0.11459051
191	0xbd850e24	-0.06496838
192	0x3d9dae17	0.07699221
193	0x3d2cd6f7	0.042197194
194	0xbdc49c48	-0.09600121
195	0xbd595d7f	-0.05306768
196	0xbc166713	-0.009179848
197	0xbdc2a285	-0.095036544
198	0x3ce621fb	0.028092375
199	0xbd87cefc	-0.06631276
200	0xbd6f9612	-0.058492728
201	0x3d361c84	0.04446079
202	0x3d6ae2e0	0.05734527
203	0x3db112de	0.08646177
204	0x3c029702	0.007970573
205	0xbd68bba5	-0.056819577
206	0xbd7e2530	-0.062047184
207	0x3d5fd39e	0.054645173
208	0x3cc5c0b1	0.024139734
209	0x3d2b0025	0.041748185
210	0xbaccf880	-0.0015638024
211	0x3cce3d5c	0.025175743
212	0x3d25d064	0.04048194
213	0xbdf94b48	-0.12172562
214	0xbe113196	-0.14179072
215	0x3d2dc5da	0.042425014
216	0x3d2c8c5e	0.042126052
217	0xbcd289dc	-0.025700502
218	0xbc3961c0	-0.011314809
219	0xbc31a4e4	-0.010842536
220	0xbcc6ee48	-0.024283543
221	0x3d823ad7	0.06358879
222	0xbd34f1c8	-0.044175893
223	0xbdad7d19	-0.08471126
224	0xbd9426bb	-0.0723395
225	0xbdded73d	-0.10880897
226	0x3d0d17d0	0.034446537
227	0x3cbb0144	0.022827752
228	0xbda0130e	-0.078161344
229	0xbd480555	-0.04883321
230	0xbd2efb04	-0.042719856
231	0xbd61fe2b	-0.055174034
232	0xbd8687b1	-0.0656885
233	0x3d2814e0	0.041035533
234	0x3cf777da	0.030208517
235	0xbceebc0b	-0.0291424
236	0x3cba8d5c	0.022772484
237	0x3c87f5d4	0.016596712
238	0xbdadeb10	-0.084921
239	0x3d33521a	0.04377947
240	0xbd88dfa8	-0.06683284
241	0xbfa4dd67	-1.2880067
242	0xbd804997	-0.06264036
243	0x3d8a428a	0.067509726
244	0x3cc7b3c6	0.024377715
245	0x3d4aeb35	0.049540717
246	0xbdc2fbbe	-0.09520672
247	0xbeffdce7	-0.49973223
248	0x3c0901ab	0.008362214
249	0xbd3ccf9e	-0.046096437
250	0xbf3a25de	-0.7271403
251	0x3c94ba24	0.018155165
252	0x3d617bc0	0.055049658
253	0xbea960f7	-0.3308179
254	0x3d109599	0.035298917
255	0xbd85edf7	-0.06539529

f6.bias f4 [84]
0	0xbc138374	-0.009003509
1	0xb8a9011c	-8.0587546e-05
2	0xbe2a2ef2	-0.1661947
3	0x3ca8ea4c	0.020619534
4	0x3c9de87e	0.0192759
5	0xbd9f28c9	-0.07771451
6	0xbdbe6a10	-0.092975736
7	0xbd952ffd	-0.07284544
8	0xbd2d8dee	-0.042371683
9	0xbd895fc8	-0.06707722
10	0xbd12cd24	-0.03584017
11	0x3cc094ee	0.023508515
12	0x3ca952d1	0.020669373
13	0xbdc95f82	-0.0983267
14	0xbda481fe	-0.080326065
15	0x3b6ca493	0.0036108836
16	0xbd4546ec	-0.04816334
17	0xbc0c1f8d	-0.008552444
18	0x3c1f6592	0.009728806
19	0x3ca063cc	0.019578837
20	0x3c91b9fc	0.01778888
21	0xbe06f873	-0.13180713
22	0xbc34e4ee	-0.011040909
23	0x3b2c6a88	0.0026308615
24	0x3d08c46d	0.03339045
25	0xbce81b1f	-0.028333245
26	0xbcba59a6	-0.022747826
27	0xbca0bc78	-0.019621119
28	0xbd45e061	-0.048309688
29	0xbdee1cff	-0.11626624
30	0xbc2bf021	-0.010494263
31	0xbd0abbce	-0.03387051
32	0xbe47df09	-0.19518675
33	0x3bc0ccf5	0.005883808
34	0xbcf54646	-0.029940736
35	0x3c1fb761	0.009748311
36	0xbd65db34	-0.05611725
37	0xbd41e544	-0.047337785
38	0xbdb54871	-0.08851708
39	0xbdac0578	-0.083994806
40	0xbd2f62cc	-0.04281883
41	0x3d13b2f3	0.03605933
42	0xbd8790ce	-0.06619416
43	0xbd3dfa48	-0.046381265
44	0x3c54f297	0.012997291
45	0x3cd03df6	0.02542017
46	0xbd734b82	-0.05939818
47	0xbd90c3d9	-0.07068605
48	0xbe136ab4	-0.14396173
49	0xbd89b9ba	-0.06724878
50	0x3cf699d1	0.030102642
51	0xbda06cb5	-0.07833234
52	0xbc697d7d	-0.01425111
53	0xbc993358	-0.01870124
54	0xbd8e7402	-0.069557205
55	0xbd63afe9	-0.055587683
56	0xbcbfacf0	-0.023397893
57	0xbd8caaf1	-0.06868542
58	0xbdb205e3	-0.08692529
59	0xbda55071	-0.080719836
60	0x3d510c9c	0.051037416
61	0xbc60d274	-0.013722051
62	0x3c3d3af2	0.011549698
63	0xbaad4b40	-0.0013221279
64	0xbdbce81d	-0.092239596
65	0xbda46e1e	-0.08028816
66	0xbdc7ce88	-0.097561896
67	0xbcfc4c0c	-0.03079798
68	0xbd72585d	-0.0591663
69	0xbd94fdc0	-0.072749615
70	0x3ca0ebec	0.019643746
71	0x3cba4c3a	0.022741426
72	0x3c2541d8	0.010086499
73	0xbd953a8a	-0.07286556
74	0xbddd3c3f	-0.10802507
75	0x3c8eef94	0.017448224
76	0xbd96f5ff	-0.07371139
77	0xbdb38a7e	-0.0876665
78	0x3cb025ab	0.021502336
79	0xbdbf0ffe	-0.09329222
80	0x3c2a4cc6	0.010394281
81	0xbbad9a49	-0.0052979332
82	0xbc239bbd	-0.009985861
83	0xbbcb0cf0	-0.0061966106

output_layer.weight f4 [10, 84]
0	0x3e0076b2	0.12545279
1	0x3ce255ad	0.027628744
2	0x3e4d0f19	0.2002529
3	0x3d463cd8	0.04839787
4	0xbdd7f1a1	-0.10544134
5	0xbd9a71fd	-0.07541273
6	0xbcd267e8	-0.025684312
7	0x3c844d20	0.016150057
8	0x3dd2c308	0.102911055
9	0x3d224217	0.03961381
10	0xbd3cbd9e	-0.04607927
11	0xbbe7f069	-0.0070782197
12	0xbd70bbb5	-0.05877276
13	0x3d35cfbe	0.04438757
14	0xba5e73c0	-0.0008485876
15	0xbd95cdb6	-0.07314627
16	0x3d84f950	0.06492865
17	0xbda8fe8c	-0.08251676
18	0x3c44efd8	0.012020074
19	0xbd83de37	-0.064388685
20	0xbd72479f	-0.059150334
21	0x3e9f3bc7	0.31100294
22	0xbc99bb3e	-0.018766042
23	0x3df6ce86	0.1205111
24	0xbb18c6a8	-0.0023311768
25	0xbce84859	-0.02835481
26	0x3dee7bf8	0.11644739
27	0xbd4da0c8	-0.05020216
28	0x3d9f16c5	0.07768015
29	0x3dfd9a9a	0.123830035
30	0x3df776af	0.12083184
31	0xbd89bc93	-0.06725421
32	0x3ebe4f84	0.3717004
33	0x3d5594f1	0.052143995
34	0x3d8476c3	0.064679645
35	0xbd8bcd61	-0.06826282
36	0xbbf8f590	-0.0075976327
37	0xbd1165fd	-0.035497654
38	0xbbd14153	-0.006385961
39	0xbcad0e28	-0.021124914
40	0xbc94d2c8	-0.018166915
41	0x3d039f95	0.03213461
42	0x3eb9f338	0.36318374
43	0x3dd59bd4	0.104301125
44	0x3dc641c2	0.09680511
45	0xbd4dc5b4	-0.050237373
46	0x3ea51a70	0.32246733
47	0x3e8e0f39	0.2774599
48	0x3e910dc9	0.2833083
49	0xbce15632	-0.027506921
50	0x3d1e2e28	0.038618237
51	0x3d85bb13	0.06529822
52	0x3bb66ac2	0.0055669257
53	0x3d6c8db5	0.05775233
54	0xbd3c8a75	-0.04603048
55	0x394e0560	0.00019647693
56	0xbdca2a75	-0.09871379
57	0x3cd2ff02	0.025756363
58	0xbc5e4e4c	-0.013568472
59	0xbd181ba4	-0.037135735
60	0xbd3b0e50	-0.045667946
61	0xbd22a14c	-0.039704606
62	0x3dc4c2aa	0.09607442
63	0xbd33d3bb	-0.043903094
64	0x3d91a5b2	0.07111682
65	0x3eaaddf4	0.33372462
66	0xbc3f485a	-0.011674965
67	0x3d527120	0.051377416
68	0xbd89a559	-0.06720991
69	0x3d3b6542	0.045750864
70	0x3da6b19e	0.081393465
71	0xbd282233	-0.04104824
72	0x3c84cbb3	0.016210413
73	0xbbb51aa3	-0.005526857
74	0xbb1fb0c0	-0.0024366826
75	0x3da6d076	0.081452295
76	0xbb8c214e	-0.004276431
77	0x3e7417fa	0.23837271
78	0xbd8dc234	-0.06921807
79	0xbdc24999	-0.09486694
80	0xbbc891d9	-0.006120902
81	0x3b12ac89	0.002238067
82	0x3d1ef755	0.038810093
83	0x3cd0497f	0.02542567
84	0x3e2626fd	0.1622581
85	0x3da65dcd	0.0812336
86	0x3e8a3420	0.26992893
87	0xbda8be45	-0.08239416
88	0xbd15baee	-0.036555223
89	0x3d94180c	0.07231149
90	0xbc092548	-0.008370705
91	0xbd10af87	-0.035323646
92	0x3e4a17bd	0.19735618
93	0x3dbe7e88	0.09301478
94	0xbd09693a	-0.033547617
95	0xbcdbceda	-0.026832033
96	0x3cf124c0	0.02943647
97	0x3cd78386	0.026307832
98	0x3dd5e0f7	0.10443299
99	0x3cfff828	0.03124626
100	0x3db063f7	0.08612817
101	0xbc091ba7	-0.008368409
102	0x3c12b729	0.008954802
103	0xbd13c66e	-0.03607791
104	0xbdba6e34	-0.09103051
105	0x3f00f2c1	0.50370413
106	0xbd94f3dd	-0.07273076
107	0x3dcabe77	0.098996095
108	0xbc779ffb	-0.015113826
109	0xbd8e8a32	-0.069599524
110	0x3e714977	0.23563181
111	0x3d4184d1	0.047245804
112	0x3d870444	0.065926105
113	0x3e908a0a	0.28230315
114	0xbc55b8aa	-0.013044516
115	0x3c46b5ac	0.012128275
116	0x3eef0011	0.46679738
117	0x3d9213a6	0.07132654
118	0x3d82fd47	0.06395965
119	0x3d33fa92	0.043940134
120	0x3c0bd700	0.008535147
121	0x3d957313	0.07297339
122	0x3d15d85a	0.036583282
123	0x3c1cb740	0.009565175
124	0x3da9449e	0.08265041
125	0x3dd1df09	0.10247619
126	0x3eba72f0	0.36415815
127	0xbc303dd8	-0.010756932
128	0xbbc443d2	-0.00598953
129	0x3ce91548	0.02845253
130	0x3e833095	0.25623003
131	0x3ec16d01	0.37778476
132	0x3ef48331	0.4775634
133	0x3d9afd6e	0.07567869
134	0x3d281671	0.041037027
135	0xbd939368	-0.0720585
136	0xbd1e3164	-0.03862132
137	0x3ba3ac72	0.0049949223
138	0x3ac792e0	0.0015226267
139	0xbd58c866	-0.05292549
140	0x3b07dba0	0.0020730272
141	0x3dadf63c	0.08494231
142	0xbcc00b0c	-0.023442768
143	0xbc0b2946	-0.008493727
144	0xbbf978aa	-0.007613261
145	0x3e181d09	0.14854826
146	0x3dca09b7	0.09865134
147	0xbc896796	-0.016773026
148	0x3e010383	0.12598996
149	0x3ecf7c15	0.40524355
150	0x3dd8ae84	0.10580161
151	0xbd45d192	-0.048295565
152	0x3d97d135	0.0741295
153	0x3dfe645c	0.12421486
154	0x3dad4bbc	0.08461711
155	0xbd976694	-0.07392612
156	0xbd5ea2d2	-0.054354496
157	0xbd2ff40f	-0.04295736
158	0x3e528d4a	0.2056171
159	0x3dae1335	0.08499757
160	0x3c64fb54	0.013975937
161	0x3e3914ee	0.1807439
162	0x3d4220dc	0.04739462
163	0x3c280424	0.010254893
164	0x3deac32d	0.11463008
165	0x3db276a3	0.087140344
166	0x3db6d61a	0.089275554
167	0x3d7212d1	0.059099976
168	0x3d08c3a7	0.033389714
169	0xbba5d489	-0.0050607366
170	0x3e2d5e91	0.16930605
171	0xbb82a478	-0.0039868914
172	0x3d9d1b6b	0.07671245
173	0xbdb7adeb	-0.08968719
174	0xbdd75e64	-0.105160505
175	0x3da1fa27	0.07909041
176	0x3e1f58a0	0.15561152
177	0x3d2c99ba	0.042138793
178	0x3d89ada5	0.06722573
179	0xbdbb5971	-0.09147919
180	0x3c1aa7ec	0.00943945
181	0x3d8f3b53	0.06993737
182	0x3e037d6a	0.1284081
183	0xbd35951b	-0.04433165
184	0xbd256e2b	-0.040388267
185	0xbd6419e4	-0.055688754
186	0xbcb8de66	-0.022566985
187	0xbd1611fd	-0.03663825
188	0x3d240068	0.04003945
189	0x3eb36e9b	0.35045323
190	0x3c44d113	0.012012738
191	0xbd345b93	-0.044032644
192	0x3ded70d2	0.115937844
193	0xbdc61594	-0.096720845
194	0x3dceabd4	0.10091367
195	0x3d9a019e	0.0751984
196	0x3d06e0a2	0.03292907
197	0x3dd8c791	0.10584939
198	0x3c4d706c	0.0125390105
199	0x3b965ba6	0.004588562
200	0x3eae3c2e	0.34030288
201	0xbd86da39	-0.065845914
202	0x3da17876	0.07884304
203	0x3cf760f8	0.030197605
204	0xbd8c44a0	-0.06849027
205	0x3d907386	0.07053284
206	0x3c93e559	0.018053697
207	0xbdc4fd89	-0.096186705
208	0x3db226bc	0.08698794
209	0x3da5fb31	0.081045516
210	0x3e6566fc	0.22402567
211	0x3da2afa2	0.079436556
212	0x3dc1dc7b	0.094658814
213	0xbd89d99d	-0.067309596
214	0x3e09429a	0.13404313
215	0x3ea737ed	0.32659855
216	0x3ea6d6a9	0.32585648
217	0x3da71fc0	0.08160353
218	0xbb8977f4	-0.0041952077
219	0xbdc8bbbe	-0.09801434
220	0x3dc0d02a	0.09414704
221	0x3d8493c6	0.06473498
222	0x3c63dff8	0.013908379
223	0x3da4e33b	0.08051153
224	0xbca23114	-0.019798793
225	0x3c6c0ffe	0.01440811
226	0x3d96d42c	0.07364687
227	0xbc1b124f	-0.009464814
228	0xbab359e4	-0.0013683406
229	0x3d2f1c5d	0.04275166
230	0xbd9615b5	-0.07328359
231	0xbcbc34b1	-0.022974344
232	0xbd37de58	-0.044889778
233	0x3e78a00a	0.242798
234	0x3d942c0c	0.07234964
235	0x3d753dc6	0.059873365
236	0xbdd6d15f	-0.10489153
237	0xbc1c7cec	-0.009551268
238	0x3d68e2c7	0.056856897
239	0x3d1c0333	0.03808899
240	0xbcbc3928	-0.022976473
241	0x3c8b5b84	0.017011411
242	0x3e13f027	0.1444708
243	0xbd911d1c	-0.0708563
244	0xbdb4b048	-0.088226855
245	0x3e083b8a	0.13303962
246	0xb900f121	-0.00012296859
247	0xbd26a132	-0.04068107
248	0x3e03587b	0.12826721
249	0x3cf096ab	0.02936872
250	0x3d5b8583	0.053594124
251	0xba166e7c	-0.00057385094
252	0x3ad40fd7	0.0016179037
253	0x3d315a66	0.0432991
254	0x3e8384ca	0.25687248
255	0xbd869d0a	-0.065729216

output_layer.bias f4 [10]
0	0x3a930288	0.0011215964
1	0xbd5b7147	-0.053574827
2	0x3dabe3a0	0.083930254
3	0x3c51b4e0	0.012799472
4	0x3d0844fa	0.033268906
5	0x3c983b6a	0.018583018
6	0xbdc2d2cd	-0.09512863
7	0xbd34ebd6	-0.044170223
8	0x3de48d5c	0.11159775
9	0xbce2f8e2	-0.027706567
