data/models_output/models_lenet/m_lenet8.pt (torch_old, 249648 bytes, 10 tensors)

c1.weight f4 [6, 3, 5, 5]
000000 9a 9b 96 be 06 0e dd be cf 21 bc be 55 f7 be be
       -0.2941559 -0.43174762 -0.36744544 -0.37298074
000010 87 fa cb be 65 5e bc be a0 c4 6f be a1 d7 b5 be
       -0.39839575 -0.36790767 -0.2341485 -0.35516074
000020 22 32 be be 91 fd c5 be fd 6e 83 be c7 30 b7 be
       -0.37147623 -0.38670018 -0.25670615 -0.35779402
000030 43 78 c5 be 91 78 60 be f9 a2 b3 be da 78 bc be
       -0.38568315 -0.21920992 -0.35085276 -0.36810952
000040 7d 52 a7 be d6 c7 c7 be ae 7b cd be 8e cf c5 be
       -0.3268012 -0.3901965 -0.40133423 -0.38634914
000050 8a 1b 11 bf 51 4f 0d bf e5 8f 0c bf 33 8a ef be
       -0.56682646 -0.5519915 -0.54907066 -0.46785125
000060 9c 7d f6 be ce d6 de be cd ff d3 be 05 ef e6 be
       -0.48142707 -0.43523258 -0.41406098 -0.45104232
000070 c2 d1 9d be c0 ff b9 be 28 c4 c5 be d9 50 6c be
       -0.30824095 -0.36327934 -0.38626218 -0.23077716
000080 a2 93 85 be d3 85 bb be 13 d5 71 be 70 2f d2 be
       -0.26089197 -0.36625537 -0.23616438 -0.41051817
000090 5b 65 ad be 20 99 66 be 9f 1c b2 be b9 7e 21 be
       -0.3386639 -0.2251935 -0.3478746 -0.15770997
0000a0 5e 47 a3 be 8c c6 e3 be 7a 87 09 bf 0d c2 94 be
       -0.31890386 -0.44487417 -0.53722346 -0.290543
0000b0 5f d6 e1 be bd 5f dc be 7c b2 1f bf 2b b7 00 bf
       -0.44108865 -0.43041793 -0.6238172 -0.5027949
0000c0 90 2b 07 bf 25 09 f4 be d1 4e a7 be 28 0a 7e be
       -0.52800846 -0.47663227 -0.3267732 -0.24808562
0000d0 82 4a 88 be 7e e9 c3 be d6 5b 5b be 43 0d 7b be
       -0.26619345 -0.38264078 -0.21421751 -0.24516778
0000e0 0b 3b a5 be a6 11 ab be ce 3c 35 be 3d da 82 be
       -0.3227161 -0.33411902 -0.17698976 -0.25557128
0000f0 68 a5 4e be 5a 51 90 be d3 a2 75 be ff f0 7f be
       -0.20180285 -0.28187066 -0.23987894 -0.24994276
000100 f2 f9 25 be 85 19 c1 be aa 5d 90 be 57 d9 c8 be
       -0.16208628 -0.37714782 -0.2819646 -0.39228317
000110 f2 59 9b be 99 a9 b7 be ae 4d d5 be 07 5f ba be
       -0.3034206 -0.3587158 -0.41660827 -0.36400625
000120 d0 76 e7 be 39 fc d8 be 64 71 bf be 7d ed e5 c0
       -0.45207834 -0.4237993 -0.37391198 -7.1852403
000130 29 f5 ed c0 c2 13 f4 c0 6b 59 ec c0 34 4d e2 c0
       -7.436177 -7.627412 -7.3859153 -7.071924
000140 90 91 ea c0 a2 36 f7 c0 9d a1 f8 c0 fb 6d f0 c0
       -7.330269 -7.725419 -7.769728 -7.5134254
000150 14 11 e7 c0 da fb e6 c0 87 b9 f2 c0 13 c5 f3 c0
       -7.2208347 -7.2182436 -7.5851474 -7.617807
000160 4c 4a ea c0 ac d3 e1 c0 aa fb e5 c0 7d 2d ea c0
       -7.3215694 -7.057089 -7.1869707 -7.318053
000170 96 6d e4 c0 ac 07 db c0 a4 76 da c0 30 cf da c0
       -7.138377 -6.8446865 -6.8269825 -6.8377914
000180 4c 63 dc c0 1b 8f d8 c0 8d 68 d2 c0 73 24 d6 c0
       -6.887121 -6.767469 -6.5752625 -6.6919494
000190 70 fb f4 c0 b1 2e fe c0 b8 d3 fc c0 8b 4c f9 c0
       -7.655693 -7.9431996 -7.9008446 -7.7905936
0001a0 4d 56 f1 c0 a5 d1 f5 c0 dd 68 fd c0 cb d2 00 c1
       -7.541785 -7.6818414 -7.9190507 -8.051463
0001b0 99 8a fb c0 bf 4a f0 c0 4b 7c f2 c0 b4 da fb c0
       -7.8606687 -7.5091243 -7.5776725 -7.870447
0001c0 9b 58 f7 c0 7e 63 ed c0 3d 1e ed c0 a5 dc e9 c0
       -7.729566 -7.418395 -7.409941 -7.308184
0001d0 fc 5f f3 c0 87 a4 ec c0 42 07 e5 c0 61 1d e1 c0
       -7.605467 -7.395084 -7.157136 -7.0348363
0001e0 b7 2e df c0 01 8d e5 c0 d2 4b de c0 74 c1 d6 c0
       -6.9744525 -7.1734624 -6.9467554 -6.711115
0001f0 6d 4e d9 c0 bc 9a df c0 e1 73 e8 c0 13 9c ea c0
       -6.7908235 -6.9876385 -7.2641454 -7.331552
000200 61 38 e8 c0 91 a4 df c0 40 2b e1 c0 7e 8e e9 c0
       -7.256882 -6.9888387 -7.0365295 -7.298644
000210 ca 24 eb c0 f2 c0 e9 c0 96 3a e1 c0 78 6b de c0
       -7.348241 -7.304803 -7.0384016 -6.9506187
000220 ee 76 e7 c0 b1 1c e4 c0 fe a0 de c0 6d 96 d6 c0
       -7.233268 -7.1285024 -6.9571524 -6.7058625
000230 75 da d5 c0 bc c9 dc c0 72 4b da c0 7d 09 d0 c0
       -6.682917 -6.899626 -6.8217096 -6.501158
000240 21 0b cd c0 17 c7 cc c0 9d 02 cf c0 d0 2c cc c0
       -6.4076085 -6.399303 -6.469069 -6.3804703
000250 4b 53 c4 c0 bd 45 c7 c0 4f 8b 9c be 75 e5 48 be
       -6.1351676 -6.227263 -0.30575034 -0.19618781
000260 85 0d 4a be 37 75 9c be 77 5d 6c be 1f 8f 7e be
       -0.1973172 -0.30558178 -0.23082529 -0.24859284
000270 51 bc 86 be fa 80 40 be 6a ce b8 bd 9e 16 5a be
       -0.2631555 -0.187992 -0.09023745 -0.2129769
000280 82 07 0b be 93 e4 3a be 4b 69 f5 bd db 5f 7b be
       -0.13577083 -0.18251257 -0.11982974 -0.24548285
000290 c2 15 04 be 05 b5 c3 bd 3a de e8 bd 10 18 29 be
       -0.12898925 -0.09556011 -0.11370511 -0.16513085
0002a0 63 ef 25 be 6b 3e 60 be 1d c6 2b be f3 fd bf bc
       -0.162046 -0.2189881 -0.16774793 -0.023436522
0002b0 56 68 56 be 78 08 4a be 1e 4f 02 be f9 ae 8f be
       -0.20938239 -0.19729793 -0.12725493 -0.2806318
0002c0 1e ea 3c be 97 06 65 be 99 fe 8c be cb 81 7b be
       -0.18448684 -0.22365795 -0.27537993 -0.24561231
0002d0 81 e9 b9 be 74 49 1b be e0 c8 58 be 90 3d 70 be
       -0.36310962 -0.15164739 -0.21170378 -0.23460984
0002e0 7a 8c c6 bd 0a c2 83 be dd 9b 9b be 18 13 b6 bd
       -0.096947625 -0.25733978 -0.30392352 -0.088903606
0002f0 d5 31 0c be ae c9 27 be 55 9e 4f be e3 9f 6c be
       -0.13690884 -0.16385528 -0.20275243 -0.23107867
000300 1c 96 56 be 09 a4 4d be 50 aa 6e be 70 1a 5a be
       -0.209557 -0.20082106 -0.23307157 -0.21299148
000310 73 09 03 be d2 58 02 be a6 29 8a bd 81 57 cb bd
       -0.12796573 -0.12729195 -0.06746225 -0.099287994
000320 c1 7b 79 be 14 cc 94 be 27 74 5c be 96 86 a5 bd
       -0.24363615 -0.2906195 -0.21528684 -0.08082311
000330 e4 04 81 be b4 8c 90 be e3 af 73 be 09 79 35 be
       -0.25199044 -0.28232348 -0.23797564 -0.17721952
000340 31 41 5b be 2b 49 46 be e0 64 63 be 77 65 44 be
       -0.21411587 -0.19363849 -0.2220645 -0.19179331
000350 a3 99 c0 bd 6b 3b fa bd 3d b3 73 bd e4 f6 48 be
       -0.09404304 -0.12218364 -0.059497107 -0.19625431
000360 7d 90 b7 bd f4 84 37 be 8d 04 19 3c f0 d8 ba bd
       -0.08963106 -0.17921811 0.009339464 -0.09123409
000370 28 f1 51 be 02 e2 61 be 17 6e 22 be dd 0e 1e be
       -0.2050215 -0.22058871 -0.15862308 -0.15435357
000380 3f 6b 6d bd b9 5f 07 be fc 16 f7 3c 17 96 1c be
       -0.057963606 -0.13220109 0.030162327 -0.1529163
000390 81 0c b5 bd bf 09 9c bb 3c 9c da bd ce ae fb bd
       -0.088402756 -0.004761904 -0.106743306 -0.12289201
0003a0 86 d7 aa 3c 45 1a 2b be 18 32 28 be 0d 90 3b bc
       0.020854723 -0.1670924 -0.16425359 -0.011447919
0003b0 18 b3 22 bd f6 57 54 bd 76 88 95 3c 0f a6 e1 bd
       -0.03972158 -0.0518417 0.018253546 -0.11018001
0003c0 c9 f4 f0 bd c5 21 ec bd 98 d1 50 bd 68 56 1a bc
       -0.11765439 -0.115298785 -0.050981134 -0.009420015
0003d0 08 11 0d be 60 1b 36 be 5a e7 25 be c0 32 1d be
       -0.13776028 -0.1778388 -0.16201535 -0.15351391
0003e0 38 f1 89 bd a3 6b 52 bd 73 ad 57 be f7 61 ac bd
       -0.06735462 -0.05137218 -0.2106226 -0.08417123
0003f0 b7 24 8c be 71 64 02 be a0 d3 31 be 11 f3 67 be
       -0.2737176 -0.12733628 -0.17365885 -0.22651316

c1.bias f4 [6]
000000 7b ee 6b bc 7c c8 00 3c e3 db bb 3d 65 b9 9a bd
       -0.01440012 0.007860299 0.091727994 -0.075548925
000010 d9 f2 c4 3c bb bd 57 3d
       0.02404158 0.052671175

c3.weight f4 [16, 6, 5, 5]
000000 1b 25 35 bd c5 cb 91 3c 55 5f 30 bd 7d 8a 9d 3d
       -0.04422484 0.01779736 -0.043059666 0.0769243
000010 6c 5a 13 bc 85 6f 99 bd 4b ed 41 3d 95 50 8e bd
       -0.008993726 -0.07491974 0.04734544 -0.069489636
000020 4c 53 08 bd fa 47 10 3d c2 2d 0e 3d 35 be 7f bd
       -0.033282563 0.035224892 0.034711607 -0.062437255
000030 3b 99 35 bc 92 3e bd 3c 81 c5 b5 3c fd d3 15 bd
       -0.011083896 0.023101125 0.022188904 -0.03657912
000040 55 f3 01 bd 67 4e 8d 3d 04 d9 ba 3d 9a 79 6e bd
       -0.0317262 0.0689972 0.09123424 -0.058221437
000050 01 ef 13 bd 5c c7 6e 3d 55 f2 67 bd a1 bb af 3d
       -0.036116604 0.058295593 -0.05662759 0.08580709
000060 6b 5d 04 3d 2e b9 bb 3f 4c 7a c9 3f de e3 cb 3f
       0.032315653 1.4665887 1.5740447 1.5928915
000070 91 99 af 3f fc df a8 3f c3 e1 bc 3f 15 cf b4 3f
       1.371874 1.3193355 1.4756397 1.4125696
000080 16 13 b6 3f 14 55 ba 3f 50 50 ad 3f 4f f0 b5 3f
       1.4224575 1.4557214 1.3540134 1.4213961
000090 70 ff a6 3f fa 9c a7 3f 4e 63 a3 3f e8 24 8a 3f
       1.3046703 1.309478 1.276468 1.0792513
0000a0 c8 10 b0 3f db d9 8f 3f 1d 1c 8c 3f b1 e5 91 3f
       1.3755121 1.1238359 1.094608 1.1398221
0000b0 0b ab 82 3f 14 83 a3 3f 74 dc a3 3f 71 dd 92 3f
       1.0208448 1.2774377 1.2801652 1.1473829
0000c0 ad 82 99 3f 5f 7b 81 3f a0 ae 68 bd 30 a0 21 bd
       1.1993004 1.0115775 -0.05680716 -0.039459407
0000d0 4e 3a 1d ba b7 fc 76 3c 45 5b 99 3d c9 a6 f3 3c
       -0.0005997763 0.0150749 0.074881114 0.029742615
0000e0 55 04 75 3d 38 8a 46 bd 4b 63 b6 3a f2 43 3e 3d
       0.059818584 -0.04847166 0.001391509 0.046451516
0000f0 c7 9b 81 bd 94 33 3d bd 52 8a f1 bc 75 ed e6 3d
       -0.0632854 -0.046191767 -0.029484902 0.1127576
000100 11 72 92 3d df c5 b7 3d 3d 26 1a bc 3d f7 0d 3d
       0.07150663 0.08973288 -0.009408531 0.034659613
000110 b2 79 2c bc 16 85 32 3d 1f 6b 69 bd 30 bc 67 3d
       -0.010527061 0.043583952 -0.056986924 0.056575954
000120 d0 3a d0 bb 27 db a8 3d 30 37 59 3c b4 19 9d 3c
       -0.0063546672 0.08244925 0.013257787 0.019177295
000130 79 f4 e7 bb 31 b1 92 3d 0b 42 20 bd 1d 2d 92 bd
       -0.007078704 0.07162703 -0.039125483 -0.07137511
000140 04 3f 89 bd 88 9d 9d 3d 8b d3 ac 3b 88 bb 94 3d
       -0.067014724 0.07696062 0.0052742413 0.07262331
000150 11 56 72 bd 90 c0 eb 3c 99 89 ad 3c db 70 0b bd
       -0.05916411 0.028778344 0.021183776 -0.034043174
000160 9f 85 76 39 fe 66 8e 3d 93 38 92 3d bf ed 81 bd
       0.00023510166 0.06953238 0.07139697 -0.063441746
000170 d6 e5 59 3d 1e 9d 12 3d d2 43 30 3d ba 76 a6 3d
       0.053197704 0.03579437 0.04303343 0.08128114
000180 e4 c5 62 bc 35 5a 80 bd 04 70 b4 bc c7 e6 a9 3c
       -0.013841126 -0.062672056 -0.02202607 0.020739926
000190 e6 78 69 3d 46 95 91 bd eb 87 05 bd 1e 35 2e bd
       0.057000063 -0.0710855 -0.032600325 -0.042531125
0001a0 14 84 7d bc 75 09 ab 3c 90 e4 51 bd 93 b7 dc 3c
       -0.015473384 0.020878533 -0.051243365 0.026943004
0001b0 e7 3b aa bc 02 56 26 bc cf 8f 1f 3c 13 13 ee bc
       -0.020780517 -0.010152342 0.0097388765 -0.02906183
0001c0 7d f5 8c 3d a7 71 22 3d 60 cb 63 bd 51 5f ff 3c
       0.06882761 0.03965917 -0.055613875 0.03117338
0001d0 ba 7c 6b 3d 64 da b1 3b c3 33 65 3c 6f eb 9c 3b
       0.057491995 0.0054276455 0.013989392 0.004788808
0001e0 c6 54 03 3d 52 70 8e bc a1 06 0c bd 32 2b 57 bb
       0.032063268 -0.017387543 -0.03418601 -0.0032832143
0001f0 4b 83 2d 3c d3 36 ae bc 40 46 d9 bc cc 9b 9b 3d
       0.010590385 -0.021266377 -0.026522756 0.07598075
000200 62 51 74 bd 44 b8 42 3d bd 29 8c bd a5 dd 4c 3d
       -0.059647925 0.04753901 -0.068438984 0.050016064
000210 8c ad 98 bd 72 8a 0f bd 6a 26 ad bc e5 eb 0c 3d
       -0.074549764 -0.03504414 -0.021136481 0.034404654
000220 2f 74 98 bd 87 98 a0 3d 1f 38 17 3d 09 26 2a bd
       -0.07444035 0.07841592 0.036918756 -0.04154018
000230 f3 fe 98 3d f8 d8 08 3d 94 1a 75 bd 52 2a 4c 3c
       0.07470503 0.033410043 -0.0598398 0.012461262
000240 ad 6e 79 bd de f0 9e bb ff 67 1d bd bb 42 46 3c
       -0.060896564 -0.004850491 -0.038429257 0.012100871
000250 56 f9 89 3d 8b 0d 8a bd 1a 5f 93 bd 0e b7 e2 bc
       0.0673701 -0.06740864 -0.071958736 -0.027675178
000260 4e a1 62 bd 24 20 a3 bc 28 a4 c7 bd 23 8c c4 bd
       -0.055329613 -0.019912787 -0.09748107 -0.095970415
000270 e7 50 85 bd 31 c2 22 bc f4 9d 40 3d d6 07 6c 3d
       -0.065095715 -0.009933994 0.047025636 0.05762466
000280 ab 9b a4 bb 30 ba ba 3c b3 92 42 3d 51 d0 09 3c
       -0.00502344 0.02279386 0.047503185 0.008411483
000290 3c 6b f2 38 17 cd 76 bd 97 35 48 bc e7 5e cb bd
       0.00011559433 -0.060254183 -0.012219808 -0.099302106
0002a0 45 5a 7f bd 99 cc 2c 3d 44 64 44 bd b5 63 1c 3d
       -0.062341947 0.042187307 -0.047947183 0.038181026
0002b0 e4 1f 05 3d ef 22 a6 bc 98 93 2b 3d 1d 95 8a c0
       0.032501116 -0.02028033 0.041888803 -4.3307023
0002c0 6b 38 8a c0 94 91 89 c0 85 71 87 c0 f9 99 87 c0
       -4.319387 -4.299021 -4.2326074 -4.2375455
0002d0 84 86 88 c0 a8 00 8a c0 20 18 8a c0 2a dc 89 c0
       -4.2664204 -4.31258 -4.315445 -4.3081255
0002e0 e5 47 8b c0 e9 b5 86 c0 b5 fd 84 c0 4f e0 88 c0
       -4.352526 -4.209706 -4.15597 -4.2773814
0002f0 27 53 8d c0 0a a5 8a c0 7b ca 87 c0 4d 24 89 c0
       -4.4164004 -4.3326464 -4.243467 -4.2856812
000300 20 76 88 c0 8a 0c 8a c0 4b fc 8a c0 b5 64 8a c0
       -4.2644196 -4.3140306 -4.3432975 -4.3247933
000310 89 22 8a c0 c3 d9 89 c0 a4 bf 89 c0 bb ca 87 c0
       -4.3167157 -4.3078322 -4.3046436 -4.2434974
000320 86 4d 93 bd ca 52 21 bd ce 88 2a bd 87 04 25 bd
       -0.07192521 -0.039385594 -0.041634373 -0.04028752
000330 8d c5 af bd e2 41 f3 bc 9b 13 ca bd 15 ad 20 bd
       -0.08582602 -0.029694501 -0.09867021 -0.039227564
000340 9a 27 a2 bc 1f 2b 43 bd 1c 57 94 bd 88 2a 35 3d
       -0.019794274 -0.047648545 -0.07243177 0.044230014
000350 dd 77 62 bd 10 83 59 3c 72 38 91 bd 3b 04 50 3d
       -0.05529009 0.013275877 -0.07090844 0.050785284
000360 b1 54 ee 3c 2f eb 1f 3d a4 ad c3 bb 90 60 63 bd
       0.029093118 0.039042648 -0.0059716273 -0.05551201
000370 09 24 f7 3a c9 a8 c0 bd 35 74 e6 3c c2 fe 0a bd
       0.0018855344 -0.09407193 0.028131584 -0.033934362
000380 7d 38 3b 3c b5 b6 8f 3b 9f 1f b5 bc 14 9e 9f bd
       0.011427042 0.004385794 -0.022109805 -0.07793823
000390 77 81 c0 3c 14 4a 57 3d 8a 69 6a 3d 6e d1 0e 3c
       0.023499234 0.05256088 0.057229556 0.008716924
0003a0 be 94 28 39 bd 5e 09 bd 57 9d 2f 3d f7 14 46 bc
       0.0001607714 -0.033537615 0.04287466 -0.012089959
0003b0 e8 a1 22 3c f8 63 a4 3d f6 04 89 bd 0d e9 8e 3c
       0.009926297 0.0802688 -0.06690399 0.017445112
0003c0 cd 88 c6 bc f7 da b1 bc d2 ca a3 3d fb 0d 43 3d
       -0.024235154 -0.021710856 0.07997669 0.047620755
0003d0 fd 66 8d 3b 1b 41 9c 3d 7e af 95 3d 50 8e 70 3b
       0.0043152557 0.076296054 0.07308863 0.0036705919
0003e0 0f 79 8a bd ef a1 60 3d 06 df 4b 3d b0 a9 a6 bd
       -0.06761371 0.054841932 0.04977324 -0.08137834
0003f0 0c ba 88 bc a3 a2 99 3d 9c 65 11 3d ec ca 8a 3d
       -0.016690277 0.075017236 0.035497293 0.067769855

c3.bias f4 [16]
000000 cc 0f 1f bf d3 a8 c0 bd 50 f4 6b bd 04 9e 08 bd
       -0.6213348 -0.09407201 -0.05760604 -0.03335382
000010 e0 96 a7 bd ec 79 a3 be 83 9e 42 3d 79 22 3f be
       -0.08183074 -0.31928957 0.04751445 -0.18665494
000020 3d fe 6b bd 44 ac 3d bd 3a 18 d5 bd c0 8f 17 be
       -0.057615507 -0.046306863 -0.104050115 -0.1480093
000030 bf f2 b0 be 79 41 bf bd 89 f7 df ba e6 80 89 bd
       -0.345602 -0.0933866 -0.0017087321 -0.067140386

c5.weight f4 [120, 400]
000000 07 b9 99 3c 4e 2c 76 3c 43 88 39 3d 93 39 31 bd
       0.018764986 0.0150252115 0.045295965 -0.043267798
000010 3b 65 c0 3c e1 7e 20 bd d6 1c 7b 3c 4e fa 1b bd
       0.02348577 -0.0391835 0.015326699 -0.038080506
000020 a6 59 52 3c d6 a2 17 bd dd 50 ee bb de 1c 2d bc
       0.012838757 -0.037020527 -0.0072728232 -0.0105659645
000030 a3 39 43 bd a2 20 1e bc fb 83 c7 3c 4b a5 85 bc
       -0.04766239 -0.009651335 0.024354925 -0.01631417
000040 39 45 42 bb eb 57 8a bc 2f fa 85 3c f6 51 df bc
       -0.002964331 -0.016887626 0.016354648 -0.027260762
000050 3e 95 2d 3c 63 57 11 bd f1 15 82 bc 36 52 98 bc
       0.010594664 -0.03548373 -0.015879603 -0.018593889
000060 8c a7 fb 3b 2b 17 39 3d 73 0d 48 bd f7 fe 46 3d
       0.0076798853 0.04518811 -0.04884095 0.048582997
000070 5a 62 17 bd 04 b4 70 3c 4c 10 14 3c 42 0b dc 3c
       -0.03695903 0.014691357 0.009037089 0.026860837
000080 10 5b 9d bb 77 d9 34 bd f2 4c d2 3c 50 b9 e9 bb
       -0.0048021153 -0.044152703 0.025671456 -0.0071326867
000090 55 8b 0d 3d a0 c5 65 bb bb 1d 3f bd 82 89 c3 3c
       0.034556706 -0.003506042 -0.046659213 0.02386928
0000a0 d0 24 32 bb b7 1b 5d bb 36 4c b0 3c 34 5d 3a 3d
       -0.0027182586 -0.0033738443 0.021520715 0.04549904
0000b0 e6 1a 05 bc d8 42 b5 bb 1a 45 eb 3c d6 b1 d7 3c
       -0.008124089 -0.00553165 0.028719474 0.026329916
0000c0 d3 11 2c bd 7f e5 0a bd 50 20 8b bc 00 71 bf 3b
       -0.042009186 -0.03391027 -0.016983181 0.005842328
0000d0 c7 88 a5 bc 7c c6 8e bc 68 0f db bb 29 98 11 3d
       -0.020206822 -0.01742863 -0.006685186 0.0355455
0000e0 90 9e f3 3b 7a 45 fa 3c 5d b3 a6 bc ee 74 86 3c
       0.0074346736 0.030550707 -0.020349199 0.016413178
0000f0 c5 b1 09 bd 56 5b ba 3c e0 79 11 3c a0 a7 36 bd
       -0.0336168 0.02274863 0.008879155 -0.044593453
000100 b8 7b 46 bc 3c d3 7b 3c fe 7f 19 bd b0 c2 d3 bc
       -0.012114458 0.015370186 -0.03747558 -0.02584967
000110 de a0 5d 3c 63 09 3d bd 00 f4 4e 3a 19 0b a3 bc
       0.013527123 -0.04615153 0.0007894635 -0.019902753
000120 c2 26 a5 bb 7e 96 2a 3d 07 66 24 bd d7 c1 fb bc
       -0.0050400207 0.041647427 -0.040136363 -0.030732078
000130 80 ea 5d bc 03 d2 0d 3d e1 af 15 3d 80 b4 72 3b
       -0.013544679 0.03462411 0.036544684 0.0037033856
000140 82 3f 36 bd ac b2 40 bc f9 1b 35 3d 42 bd df 3c
       -0.04449416 -0.011761349 0.04421613 0.027311925
000150 15 30 3f 3d 00 5d 24 bc 22 51 f9 3c a9 f8 18 3d
       0.046676714 -0.010031939 0.030434195 0.037346516
000160 bb 4a 16 bd 23 fb f8 bc 38 a6 29 bc 06 10 28 bc
       -0.036692362 -0.030393189 -0.010354571 -0.010257727
000170 02 c4 bf bb ee 56 03 3d 58 b0 97 bb 3f 84 47 3d
       -0.0058522234 0.032065324 -0.004629176 0.048710104
000180 a1 b9 49 3d 70 82 2c 3d 0c d6 34 bd d8 a0 fe 3c
       0.049249295 0.042116582 -0.044149444 0.031082556
000190 ac 28 37 3c 08 20 1c bd 50 65 3d bd 58 19 ce bb
       0.0111791305 -0.038116485 -0.046239197 -0.0062896423
0001a0 63 40 27 bd b0 db a7 bb 2a 53 a3 3c b0 84 79 3b
       -0.04083289 -0.0051226243 0.019937117 0.0038073473
0001b0 dc b0 8b bc b3 20 d6 bc e4 51 75 3c 69 6c 46 3d
       -0.017052107 -0.02613864 0.0149731375 0.04844323
0001c0 a8 80 ea 3b 60 69 38 3b d2 cf b0 3c 60 b7 88 3a
       0.0071564503 0.002813898 0.021583471 0.0010430627
0001d0 d4 8b 42 bc 74 14 5d 3c 8c d2 e3 3c 18 d5 11 bd
       -0.011874158 0.013493646 0.027810358 -0.035603613
0001e0 49 4f 03 3d a4 74 5e 3c 89 30 f1 3c 07 7f 29 3d
       0.032058034 0.013577614 0.029442089 0.04138091
0001f0 bb 6a 03 bd a6 6b ba bc d0 47 2e bd d5 d5 e3 3a
       -0.032084208 -0.022756409 -0.042548954 0.0017382452
000200 90 2d 39 bd 9b 17 08 bd 46 71 ec bc 4b 7b 82 bb
       -0.045209467 -0.033225637 -0.028862607 -0.003981983
000210 4b 73 59 3b 3b 83 17 bd 63 ff bd 3c 46 16 9b bc
       0.0033180292 -0.036990386 0.023193067 -0.01893152
000220 27 35 9d 3c 5b f5 c2 3c 8d c5 f1 3b 45 ba 21 bb
       0.019190384 0.023798635 0.007378286 -0.0024677676
000230 85 3d 26 bc 99 d3 18 bc 8a 0f c3 3c 79 a4 1c 3d
       -0.010146503 -0.009327793 0.02381112 0.03824279
000240 bb 33 f4 3b 30 b4 de bc 3c f6 16 bd f9 29 70 3c
       0.007452456 -0.02718553 -0.03685592 0.014658445
000250 26 1f ec 3c 19 87 42 bd d2 a5 34 3d dc d1 29 bc
       0.028823446 -0.04749212 0.04410345 -0.010364976
000260 54 ca 96 bc ba e1 3f 3d 20 b9 db 3c c4 f9 e6 3c
       -0.018407024 0.04684613 0.026821673 0.02819527
000270 a2 c0 06 3d 64 22 7e bc 64 12 2d 3c 3e 16 35 bd
       0.032898553 -0.015511129 0.010563467 -0.044210665
000280 cc 9c 26 3d 43 fd 5d ba 4c be 85 3c 60 7b a7 3b
       0.040676877 -0.000846822 0.016326092 0.005111143
000290 c4 fd b0 3c f8 44 61 3c d7 3b ca 3b 44 f3 18 3d
       0.02160538 0.013749354 0.0061716842 0.03734137
0002a0 db 4b db 3c 62 03 d1 3c a4 5b 3c 3d 03 74 35 3d
       0.02676957 0.025514308 0.045985833 0.04430009
0002b0 79 93 02 bd ca aa 2b bd e7 2a 35 bd 11 cd ab bc
       -0.031878922 -0.041910924 -0.044230368 -0.020971807
0002c0 25 8f 2c bd fe ed 0a bd 86 09 93 3c ce 03 d2 3c
       -0.0421287 -0.033918373 0.017948877 0.02563658
0002d0 e3 e6 25 3d cf fd 19 3d d2 94 30 bd 84 cb d5 bc
       0.040503394 0.037595566 -0.043110676 -0.02609802
0002e0 11 25 13 3d d7 cb b2 bc f4 8b e0 bc d2 b5 e9 3c
       0.03592402 -0.021825714 -0.027410485 0.028529081
0002f0 0d c6 06 3d c4 a6 3f bd 4f 22 0e 3d 77 5f 16 bd
       0.03290372 -0.0467899 0.034700688 -0.036712136
000300 fe 07 43 bd 48 90 c2 bc d8 3a 2e 3d 62 c5 e2 3c
       -0.047615044 -0.02375044 0.042536587 0.02768201
000310 fe f1 bc 3c d6 34 3e 3d cd ab 1f bc 20 ad 9b bc
       0.02306461 0.046437107 -0.00974555 -0.01900345
000320 06 c7 cf 3c aa c7 c9 bc 10 ac ec 3b f1 a8 31 3d
       0.025363456 -0.02463134 0.00722266 0.043374006
000330 9c d7 6f 3c 5a bb 9a 3c 3d 3e 37 bd fa 08 f1 bc
       0.014638808 0.018888164 -0.04473709 -0.029423226
000340 76 61 18 bd 84 92 97 bc e2 94 db 3c 9d dd d8 bc
       -0.03720232 -0.018502481 0.026804391 -0.026472861
000350 5a f9 b5 bc 02 e0 a5 3c e0 7d 98 bc 07 e4 c3 bc
       -0.022213627 0.020248417 -0.01861471 -0.023912443
000360 46 bb c9 3c fb af c4 3c fd 29 50 3c 16 86 35 bd
       0.024625432 0.024009695 0.012705323 -0.044317327
000370 98 20 08 bd 54 01 2c bc 4b bb 45 bd 94 62 00 bc
       -0.03323421 -0.0104983635 -0.04827432 -0.007836003
000380 93 6f ee 3c a3 46 22 bd 34 03 30 3c 36 ad b0 3c
       0.029105937 -0.039618146 0.010742951 0.021566968
000390 28 82 b7 3b e8 dd fd bb e0 6b 8b bc f1 8a 0a 3d
       0.0056002326 -0.0077474006 -0.017019212 0.03382391
0003a0 c5 9d 4c 3d 6a fb cd 3c 03 59 b2 bc f7 31 49 bd
       0.04995515 0.025144298 -0.02177096 -0.049119916
0003b0 30 8e 87 3b 80 29 f4 b9 68 98 2d bc cd 3d db bc
       0.004136823 -0.00046570227 -0.0105954185 -0.026762867
0003c0 c7 ce c8 bc 48 19 43 bc 42 1f 27 3d 50 25 e0 3c
       -0.024512662 -0.011907883 0.040801294 0.027361542
0003d0 3d 20 64 bb 42 63 92 3c ed 2e 8e bc 29 35 09 3a
       -0.0034809255 0.017869595 -0.01735636 0.0005234057
0003e0 d7 16 92 bb 68 da ad 3b da 7f 32 bd 6a ef a2 3c
       -0.004458289 0.005305577 -0.04357896 0.019889552
0003f0 ec db 39 bc 47 6a a4 bc fb 19 0d 3d 35 03 25 bd
       -0.011343937 -0.020070208 0.034448605 -0.04028626

c5.bias f4 [120]
000000 b1 64 31 bd a2 14 41 3c 80 96 02 3d c2 15 e3 bc
       -0.043308917 0.011784704 0.03188181 -0.027720336
000010 23 38 98 bb a0 e1 ff bc e0 5f 3f bd 66 da 30 bd
       -0.004645364 -0.031235516 -0.046722293 -0.04317703
000020 55 9c 2f be 7f 36 e2 3c a4 6e 15 3d f6 56 3e bc
       -0.1714948 0.027613876 0.03648247 -0.011617413
000030 b6 9a 8b bd 5d 72 3c bd b8 c8 1c 3c b9 44 0b bd
       -0.06816618 -0.046007503 0.009569339 -0.034001086
000040 a8 9a 15 bc 8a c8 15 bd 8f 78 c4 ba 11 64 93 3c
       -0.009131111 -0.036568202 -0.0014989543 0.017992051
000050 45 3e 34 bd 39 a9 ee bc 2a a4 84 bc 80 d8 c3 bd
       -0.044004697 -0.029133426 -0.01619156 -0.095627785
000060 3f 71 94 bc 9b 86 ad 3b 11 57 0a bd a8 d9 87 bc
       -0.018120406 0.0052955872 -0.03377444 -0.016583279
000070 fd 9f b1 bc be b4 bc bc f6 51 17 3b f4 bb 35 be
       -0.021682734 -0.023035403 0.0023089624 -0.1774748
000080 5d e0 0f 3d 4e a7 2d bd 1a 91 64 be 26 93 16 bd
       0.03512608 -0.042395882 -0.22320977 -0.036761425
000090 3e dc c6 3d 08 49 0d bd 76 59 1a 3d d5 9a 29 be
       0.097099766 -0.034493476 0.037682973 -0.1656297
0000a0 3d 53 3b 3a b6 e4 b5 bd e2 d8 e5 bc dd 63 fc bc
       0.00071458874 -0.08881514 -0.02805752 -0.030809337
0000b0 68 31 f7 bc 16 85 15 3c d1 89 4e bc 76 6e 9c bd
       -0.030174926 0.009125968 -0.0126061 -0.07638256
0000c0 b5 a3 11 bd eb b3 d4 bc a1 38 10 3d c7 38 3c bd
       -0.035556514 -0.025964698 0.035210256 -0.045952585
0000d0 44 7f 9f 3d ee d4 3a bd b5 60 43 bd 32 90 3c bd
       0.07787946 -0.04561322 -0.04769965 -0.046035953
0000e0 46 d2 b2 bd ed f6 e6 3b 98 cd fa bc b4 cc 1b bd
       -0.08731513 0.007048479 -0.030615613 -0.038037017
0000f0 16 e8 1e 3d 9d f5 ba bd 97 c3 12 bc be 54 4c bd
       0.038795553 -0.09128878 -0.008957765 -0.049885504
000100 10 08 0c bc 52 1d 2b bd 55 b7 a2 bd d7 4e f1 bc
       -0.008546844 -0.04177601 -0.07945124 -0.02945654
000110 8a 73 d8 bc 27 89 8e 3c 75 20 29 3c 7d 56 03 bd
       -0.02642228 0.017399384 0.01032268 -0.032064904
000120 af 8b ca bc cb 97 24 bd 50 fb 52 bd b5 a5 9f 3b
       -0.02472481 -0.040183824 -0.0515092 0.0048720487
000130 95 19 d1 3c 37 1a e4 bc 3a 4b 24 3d 26 22 59 bd
       0.025524894 -0.027844531 0.040110804 -0.053011082
000140 73 35 2c bd b4 61 38 3e 9e cb cc ba 26 aa ef bc
       -0.04204316 0.18006021 -0.0015624647 -0.029255938
000150 bf 60 07 3c 7c 7d e5 bc 0f 8b 88 3d 12 7a 4e 3d
       0.008262812 -0.028013937 0.06667148 0.050409384
000160 b7 11 0b bd 61 f9 2a bd 4d c3 2a bc e8 89 d0 bd
       -0.03395244 -0.041741733 -0.01042254 -0.101825535
000170 01 d4 0c 3d 7a 42 e4 3c 14 14 48 bd ba 61 74 bc
       0.03438187 0.02786373 -0.048847273 -0.014915878
000180 8f 8a a0 bc 9f ad 9e 3c e3 ea 8b 3a e3 bf d1 3c
       -0.01959732 0.019369898 0.001067486 0.025604194
000190 49 2e 49 bc cd 52 1c bc ce 9d 65 3a 14 be 1d bd
       -0.012279102 -0.009541226 0.00087591715 -0.03851135
0001a0 95 cf 03 3d f2 95 30 bd 3d 12 3e bc f2 2a a4 bd
       0.032180388 -0.04311175 -0.011601028 -0.08016004
0001b0 81 ed 83 bc 8e c6 5c bd 01 e8 81 3d af a0 59 3d
       -0.016104462 -0.053900294 0.06343079 0.053131755
0001c0 e2 7a a4 bb a8 7a e0 bc 8a 98 0e be ef a7 fa bc
       -0.0050195316 -0.027402237 -0.13925377 -0.030597655
0001d0 21 b5 48 bd 74 3f 59 bd f6 aa 22 3d 7c 7d b6 bc
       -0.049000863 -0.05303903 0.039713822 -0.022276632

f6.weight f4 [84, 120]
000000 89 d8 af 3d 96 8b 56 bd 1d 38 31 3d 24 a3 73 3d
       0.08586223 -0.052379213 0.043266404 0.059481755
000010 50 6f 6d 3d 90 1b e2 bc 8b 4e eb bc 28 ff 99 bd
       0.057967484 -0.027601033 -0.028723976 -0.0751937
000020 5c fc 7e bd a3 fa b8 3c d9 fd 88 3d c8 98 35 bc
       -0.062252387 0.02258045 0.066890426 -0.011083789
000030 23 a2 69 bd cf 27 81 bd 4a b7 98 bd 34 c1 ca bc
       -0.05703939 -0.06306421 -0.074568346 -0.02475033
000040 16 c9 8c 3c 88 8f a8 3d d1 da 53 bd d0 11 83 3c
       0.017185729 0.082305014 -0.05172235 0.015999705
000050 6c 8e eb bc 24 c3 95 bc cd 3c 00 bd ef 3b bf bc
       -0.028754435 -0.018281527 -0.031307984 -0.023344008
000060 bf 0b 97 bd d9 3d 75 3d 55 89 5a bd 52 5d 19 bd
       -0.07375287 0.059873436 -0.053353626 -0.037442513
000070 c4 0b e4 3c 08 63 20 3c ba 1f 46 3c 0e 18 b5 3d
       0.027837642 0.009789236 0.012092525 0.08842479
000080 ee ba a4 bc 2d c2 8f bd ad c4 a5 bd 24 38 b0 bd
       -0.020108666 -0.07019458 -0.080941536 -0.08604458
000090 27 f3 b5 3d 4f fd a0 bd 9c fa dd 3c e5 d3 1a bc
       0.08884268 -0.07860815 0.027097039 -0.009449934
0000a0 a3 8b f8 bc 6c 18 db 3a 40 00 67 3d 98 37 91 bd
       -0.030340021 0.0016715652 0.056396723 -0.07090682
0000b0 a0 bd 6e bc c8 a8 91 bc f4 4f b1 bd 83 0d e2 3c
       -0.014571577 -0.017780676 -0.08657828 0.027594334
0000c0 60 e5 39 bb 48 eb db 3c 13 56 82 bc 74 46 17 3d
       -0.0028365478 0.02684559 -0.015910184 0.036932424
0000d0 88 51 b2 3b 63 2c a5 bd ee 0b aa 3d 85 81 a8 bd
       0.005441848 -0.08065107 0.08303057 -0.08227829
0000e0 46 4d 40 bd 02 fd 3b 3d 97 ec e0 bc 80 e0 5e bb
       -0.046948694 0.045895584 -0.027456565 -0.0034008324
0000f0 34 d7 08 bd 07 5d 23 bd 61 7b 5c bd 74 4b f6 3c
       -0.03340836 -0.03988364 -0.0538286 0.030065276
000100 f9 91 01 3d 8e 7b 01 bd 0d 43 25 bd 01 d0 88 bd
       0.03163335 -0.03161197 -0.040347148 -0.066802986
000110 a4 82 80 bd b7 ae a4 3d d2 67 a1 bd 9d e5 7c 3d
       -0.06274918 0.08041137 -0.0788113 0.061742414
000120 18 e9 9e 3c 23 fe 63 bd d1 cb 75 bd ff ab 2b bd
       0.019398257 -0.055662286 -0.060008828 -0.041912075
000130 ec fe 30 3d b8 14 d2 bc 53 13 45 bd 00 c1 08 3a
       0.043211862 -0.025644645 -0.048114132 0.00052167475
000140 b0 6c 9f 3d c1 7f b5 bd a4 02 f9 bc 96 06 9f 3c
       0.07784402 -0.08862258 -0.030396767 0.01941232
000150 cd 53 bd bc c8 c2 3c bd db f2 68 3d 9b 8e 9a bd
       -0.023111248 -0.046084195 0.05687223 -0.07546731
000160 50 c9 88 3c f9 59 9c bd 80 19 6e 3a 5d 40 ad bb
       0.016697556 -0.076343484 0.0009082779 -0.0052872137
000170 6b 88 99 bd ea 5a a0 bd fb 38 9f bd cf 29 b1 3d
       -0.07496723 -0.078298405 -0.0777454 0.086505525
000180 12 ac 05 3d 4b 09 83 3d 1c 72 2c 3d c5 28 84 bd
       0.032634802 0.06398257 0.04210101 -0.06453089
000190 fa ae 22 bc 20 f9 4e 3d b6 e0 46 3c 40 41 77 3d
       -0.009929413 0.050530553 0.012138536 0.06036496
0001a0 99 68 6d 3b 60 c7 12 bc d6 e6 12 bd 87 5a 6c 3c
       0.0036225675 -0.0089586675 -0.035864674 0.01442588
0001b0 6b 3b a0 3c 0f cc 59 3d 9d 96 5c 3d 9d f1 ae bd
       0.019559583 0.05317312 0.053854574 -0.08542178
0001c0 60 1f 93 3d 0e bf f0 3b c4 e1 70 3d b8 21 8b 3c
       0.07183719 0.0073469942 0.058809057 0.016983852
0001d0 84 ad 2b 3d fb 62 ee 3c 2e 2a 8e 3d 5c 52 a3 bc
       0.041913524 0.029099932 0.06941639 -0.019936733
0001e0 60 2c 9b bd 60 76 02 bf 17 18 72 bd 87 24 14 be
       -0.07576823 -0.50961876 -0.059105005 -0.14467059
0001f0 f3 be 84 bd 26 9c 8f bd a6 0a 51 bd 8b 4d c6 3d
       -0.06481733 -0.07012205 -0.051035546 0.09682759
000200 2f 43 3e bf 57 56 36 bd 42 81 62 3d 9a 2d ae 3c
       -0.74321264 -0.044515934 0.05529905 0.021261979
000210 49 c9 c1 be ce 75 25 bd 3b be 2c bd 00 54 68 bd
       -0.3784888 -0.04039555 -0.042173605 -0.056720734
000220 0a d3 9b 3c a9 cb 32 bd 2e f9 97 3a 82 3a e9 bc
       0.01902153 -0.043651257 0.0011594647 -0.028470282
000230 ea ce f3 3a 0b 65 09 bf 52 c2 6c bc 1a 1c 3d bc
       0.0018601094 -0.53669804 -0.014450626 -0.0115423445
000240 d8 2c 00 3d 1d 29 12 39 c8 61 50 3c be cb 40 bd
       0.031292766 0.00013938961 0.012718625 -0.047069304
000250 bc cf 92 bf b9 d8 73 bd 61 c9 0b 3c a1 8f 40 bf
       -1.1469646 -0.059532855 0.008531899 -0.7521916
000260 b8 a3 48 bc 69 79 73 be 42 ef 23 bf 57 8e 52 3d
       -0.012246065 -0.23776783 -0.64036953 0.051405277
000270 76 0d 06 be b0 aa a4 3d 7e d9 19 bc bf af df be
       -0.13091072 0.080403686 -0.009390233 -0.4368877
000280 e4 2a d9 bc 7f 87 93 be 52 46 a4 3d 6d cd e5 ba
       -0.02650971 -0.28814313 0.08021225 -0.0017532535
000290 51 19 cb be c6 c3 23 bb ff 7c 9b 3d 5b be 25 be
       -0.39667752 -0.0024988516 0.075922005 -0.16185896
0002a0 35 81 2e bd b7 1c 55 3c 08 d4 6b 3c 53 1c b0 bd
       -0.04260369 0.013007334 0.014393814 -0.085991524
0002b0 11 ae 8e bd a4 59 a5 bc 58 4d b1 bd e0 f8 53 be
       -0.06966794 -0.020184346 -0.0865733 -0.20700407
0002c0 62 b0 84 be b4 bb 2f bd ec d3 2f bd 3c 7e 8c bc
       -0.2591582 -0.042903617 -0.042926714 -0.017150037
0002d0 19 da cd bd fe 2d 82 be b4 a1 65 bc 0e 13 47 be
       -0.100513645 -0.25425714 -0.014015604 -0.19440863
0002e0 bc d1 2a 3d f0 8e 04 3c 4e 76 8a be 10 93 7a be
       0.041703925 0.00809072 -0.27043384 -0.24470162
0002f0 46 7b d2 bc 69 c5 03 bd db ad fe bc 82 30 b6 3d
       -0.025693547 -0.032170687 -0.03108876 0.08895971
000300 d4 66 d1 be 37 3f 59 bd f8 ee 8e 3d 98 d9 89 bd
       -0.40898764 -0.053038802 0.069791734 -0.06730956
000310 4d 24 72 bd cb 1c ac 3d 09 54 7f 3d 6f c7 ee be
       -0.05911665 0.08403929 0.062336 -0.4663653
000320 ea 42 47 bd 9d 23 60 be 4b d4 94 bc 79 8f 84 be
       -0.0486478 -0.21888585 -0.018167635 -0.2589071
000330 3a b5 18 bd 1a 11 26 3b e3 7a 97 bd b9 66 30 3c
       -0.037282206 0.0025339783 -0.07396486 0.0107666785
000340 03 58 dd 3c 3e c5 b0 bd 7f 3e fc bf af e6 4c 3d
       0.027019506 -0.08631371 -1.9706572 0.050024685
000350 56 f6 17 bd 42 f2 89 bc 84 67 7e 3d 01 08 85 bd
       -0.03710016 -0.01683915 0.06211044 -0.06495667
000360 15 d9 ca bb b7 48 a3 bd fc d3 08 3d 87 06 4e 3c
       -0.006190429 -0.07972854 0.03340529 0.012574798
000370 43 60 b2 3d d4 22 98 bd 38 71 52 3c 99 38 78 bb
       0.08709767 -0.07428518 0.012844376 -0.0037875532
000380 01 c6 2d bb 7b ee b2 bd b7 0b 25 bf a1 ea 50 be
       -0.0026515725 -0.08736893 -0.64471 -0.20402004
000390 e0 f6 38 3d 97 e5 4a be 61 09 cf bd 59 73 95 ba
       0.045157313 -0.19814144 -0.10109211 -0.0011402174
0003a0 ff 61 39 3c 7a 79 e1 bd a7 95 06 bf f7 b9 3c 3d
       0.011314868 -0.11009498 -0.525721 0.046075787
0003b0 ce 6a a6 3d 4a 66 24 3d 37 54 70 bd c3 33 72 bf
       0.0812584 0.040136613 -0.058674064 -0.9461023
0003c0 18 6a 93 3d 3c 57 39 3d 87 bd ca 3c 72 c2 d8 bc
       0.0719797 0.04524921 0.024748577 -0.026459906
0003d0 3b e6 fd 3c d5 cd 27 bd a0 0a dd bc 3a 1a 12 bd
       0.030993572 -0.04096778 -0.026982605 -0.035669543
0003e0 f8 67 30 bd ee 54 9c bd ab 3b 38 bd ca 3f 26 bd
       -0.043067902 -0.076333866 -0.04497878 -0.040588178
0003f0 eb 10 b1 bd 0f 04 06 bc 53 e2 e1 bc 47 ad f4 bb
       -0.08645805 -0.008179679 -0.02757374 -0.0074669453

f6.bias f4 [84]
000000 73 6c 99 3c 8b 2a 09 bd 0a 35 64 bd 4a 69 bc bb
       0.01872847 -0.033487838 -0.055714644 -0.005749856
000010 71 95 7e 3d 80 60 66 bd e9 d3 d5 3c 9a fa 91 be
       0.062154237 -0.056244373 0.026102023 -0.28511506
000020 47 31 4c bd b4 60 fb bc 48 68 0d 3c ea e9 00 3d
       -0.049851682 -0.03068576 0.00863082 0.031473078
000030 02 2e bf bd fa 23 f5 3c 5c 82 e4 bc 3b 67 a5 bd
       -0.09334947 0.029924382 -0.027894191 -0.0807633
000040 c3 b8 e3 bc 61 8d 1a bc 1b eb b6 bd 2a 7a 1f bd
       -0.027798062 -0.009433121 -0.089315616 -0.038934864
000050 96 14 ff 3c 2e 7a 7d 3b 1e 0a c6 bd 28 2b ad bd
       0.031137746 0.003867756 -0.096698985 -0.08455497
000060 27 a3 7f bd 7c 9e 14 ba 8e 51 f0 3a 6a 28 4c bd
       -0.062411454 -0.0005669368 0.0018334852 -0.04984323
000070 25 a7 95 bc ef 0f 98 3c b3 90 0c bc 67 2e 86 bd
       -0.018268177 0.018562285 -0.008579421 -0.06551819
000080 cf 01 ad bd bd 2e f9 3c e7 07 bf bb b2 d8 4e bd
       -0.084476106 0.030417794 -0.0058297995 -0.050499626
000090 6c 21 89 bd b8 fc 4f 3c 93 88 0d 3d 5a 5a ff bc
       -0.06695828 0.01269453 0.034554075 -0.031171013
0000a0 0a eb 46 3d 2b cb 9c bd ea a2 e3 bb ab 09 93 bd
       0.048563994 -0.07655939 -0.006946911 -0.071795784
0000b0 46 cb a1 bd d1 73 3d 3d de 88 3c 3d e2 e5 a5 bd
       -0.079000995 0.04625303 0.046028964 -0.08100487
0000c0 51 bc 85 bd 4f 54 ff 3c 20 4d 70 3c ab 52 17 3d
       -0.06530059 0.031168131 0.0146668255 0.036944073
0000d0 76 29 3c bc f4 fe 12 bc 22 77 17 bd d8 52 08 bd
       -0.011484494 -0.008971918 -0.03697885 -0.03328213
0000e0 76 7e 93 3c 7b fc 04 3d fc 56 f7 bd 08 38 36 3d
       0.018004637 0.032467347 -0.12077138 0.04448703
0000f0 ba 97 26 3c 58 a0 fc 3b c0 51 bb bc 8c 13 42 bc
       0.01016801 0.007709544 -0.02286613 -0.011845481
000100 36 a0 ee 3c ab 65 82 bd 00 73 11 bd 81 77 9c bd
       0.029129129 -0.06367048 -0.035510063 -0.07639981
000110 41 ea 95 bc f1 2d 4a bd 77 b9 65 3d 75 db 22 bc
       -0.018300178 -0.04936022 0.056085076 -0.009940018
000120 95 8a fa 3c 04 1b 36 bd 96 fd 79 bd 3f 8c 2e bc
       0.03058366 -0.044459358 -0.061032854 -0.010653554
000130 6e 64 80 bd ff 56 13 be db 43 45 3c e8 bb 99 bd
       -0.062691554 -0.14388655 0.012040104 -0.075065434
000140 5b a7 f4 bc be ca e5 3b de 00 97 bd f6 fb 68 3d
       -0.029864958 0.007012694 -0.07373212 0.056880914

output_layer.weight f4 [10, 84]
000000 c1 22 8b bc 0e 3a a1 3e 28 a0 53 bd 99 5c a3 3d
       -0.016984345 0.31489605 -0.05166641 0.07976646
000010 95 04 35 bc 58 51 86 3e 4f 97 36 bc 2b 01 a0 40
       -0.011048456 0.26233935 -0.011144473 5.0001426
000020 02 1c ba bd 08 5f 85 bd 62 0c b2 3e 09 9d 96 3d
       -0.09087373 -0.065122664 0.34775072 0.07354171
000030 d2 90 e1 3f fb 09 02 3d bd 8d b6 3d 6b 7a 9b 3d
       1.7622321 0.0317478 0.08913753 0.07591709
000040 cd 3d 62 3f e4 aa 4d 3f 22 eb b0 3d 49 d3 93 3f
       0.8837555 0.80338883 0.08638598 1.1548854
000050 c0 fe c9 bd e7 39 b1 3d 27 3b d3 3e e9 51 c5 bd
       -0.09863043 0.08653622 0.41256067 -0.09634764
000060 6f 1a 7d be f2 46 49 bd 45 3e 11 bd cd 64 70 3e
       -0.24717115 -0.049139924 -0.035459775 0.23475952
000070 8b d3 c8 3e e2 10 76 3c 2f e8 e6 3c 35 83 3b 3a
       0.39223894 0.015018674 0.028186886 0.0007153035
000080 be 78 82 40 a4 4f 49 3d 51 cb 7f 3c 50 37 16 40
       4.077239 0.049148217 0.015612439 2.347126
000090 51 3b eb bb 62 c4 3b 3e 24 ec fd 3b 40 f4 a7 bd
       -0.007178702 0.18336633 0.0077490974 -0.08200884
0000a0 f3 40 8a bd 6b d8 87 3f 41 e4 ba bd 48 0e 15 3f
       -0.06750669 1.061292 -0.09125567 0.58224916
0000b0 fc d3 b9 3d da d4 a0 3c 35 7a 1b bb e6 0a 37 3d
       0.09073636 0.019632746 -0.0023723964 0.044688128
0000c0 4f 74 91 3d 95 26 ca bb 66 59 35 3e d2 23 92 3d
       0.07102262 -0.00616915 0.17709884 0.071357384
0000d0 d7 c5 4a bd 5d 2b d5 bd 2b 4b 0a 3f 81 be d9 3f
       -0.04950508 -0.104086615 0.5402095 1.7011262
0000e0 81 cb 62 bd f8 a1 4d 3e fd 3d 8c 3f 29 a6 24 3d
       -0.055369858 0.20081317 1.0956417 0.040197525
0000f0 9f e0 4a bb 07 80 79 3d 51 d4 9a 3d 50 75 e4 bd
       -0.0030956639 0.060913112 0.075600274 -0.11155188
000100 f6 0f c9 bc c5 ca ef bd 62 20 8b bd 84 af e7 3f
       -0.024543744 -0.11708597 -0.06793286 1.8100438
000110 6d b2 b4 3e 38 62 5e 3f fa 79 cf bd 5d 51 46 3f
       0.35292378 0.8686862 -0.10130687 0.774679
000120 45 f9 c6 bc d3 e9 bd bc fa 5d 83 3c 11 fa f3 3e
       -0.024288783 -0.023182785 0.016036022 0.47651723
000130 c4 ab a9 3c cd 7d 2f 3f de 56 bf bd 86 b8 08 3e
       0.020711787 0.6855133 -0.093427405 0.1335164
000140 0e e7 f3 bd 8b 04 18 be 31 a4 4a 3d ae 88 8a bc
       -0.119093046 -0.14845483 0.04947299 -0.016910877
000150 5a 20 b4 bd b7 e5 15 c0 26 c4 8d bd 9e 1a 79 bd
       -0.08795233 -2.3421457 -0.06922178 -0.0608164
000160 ce 7a 6c bd 0b ec 05 c0 62 e1 21 bd 68 28 fd c1
       -0.057734303 -2.092532 -0.039521582 -31.64473
000170 57 70 85 3d 04 fb bd 3d 3c 94 44 c0 82 22 b8 3d
       0.06515568 0.09276393 -3.0715475 0.08990957
000180 6a 96 30 c1 1a 6c 5b bd 25 ce 52 bd 22 c5 f0 3d
       -11.036722 -0.05356989 -0.051466126 0.1175635
000190 a0 a9 c2 c0 a2 54 9e c0 3c 57 86 bf a9 21 fb c0
       -6.083206 -4.947831 -1.0495372 -7.847859
0001a0 1f 12 72 3d 6f bb f7 be 1a 77 2e c0 88 94 39 3c
       0.059099313 -0.48385188 -2.7260194 0.0113269165
0001b0 41 73 00 3e aa 31 45 3d 8e 64 a6 3d d2 ab 0d c0
       0.12543966 0.048143066 0.08124648 -2.213612
0001c0 1b 15 3c c0 b1 84 a1 bc 8e d1 74 3d 03 e1 75 be
       -2.9387882 -0.019716593 0.05977016 -0.24011616
0001d0 ee 9b cc c1 b2 0a 15 bf c7 d5 af bc b5 ff 69 c1
       -25.576138 -0.58219445 -0.021464242 -14.624928
0001e0 b5 f1 2c 3e 27 42 5d bf 89 0f 2c 3c 28 74 ae 3c
       0.16889079 -0.86429065 0.010501751 0.021295622
0001f0 97 48 a2 3d d0 b4 c4 c0 bc b3 ff 3d 92 d0 5f c0
       0.07924002 -6.147072 0.124854535 -3.4971051
000200 cc 21 9c be 1d a2 a7 bd 1a 74 ac 3d 5e 87 b5 3d
       -0.30494535 -0.081852175 0.08420582 0.0886371
000210 45 1e cf bd eb e9 5e bd 00 fd c5 bf d6 d4 37 bd
       -0.10113195 -0.0544223 -1.5467834 -0.04488071
000220 40 75 c5 3d ab fc 3a 3d 91 6d 2a c0 d1 c0 30 c1
       0.09641504 0.04565112 -2.6629374 -11.047074
000230 3b e7 4f 3c fb db b1 bf e1 10 df c0 ec 80 aa bd
       0.012689407 -1.3895258 -6.9708104 -0.08325371
000240 d7 5a 4c 3c 95 65 d4 bc 0b 95 96 bd 78 74 86 3c
       0.01247283 -0.025927344 -0.073526464 0.016412959
000250 90 cc d4 3c ca 8a a5 3d e8 8d 78 bd 49 33 2e c1
       0.02597645 0.080831125 -0.060682207 -10.887521
000260 4a 57 c3 bf 69 eb a8 c0 1a 4b 57 bd d8 03 ae c0
       -1.5261014 -5.2787366 -0.052561857 -5.437969
000270 01 4d 80 3b fd 5e 83 bd e9 36 67 be 1b 1f 61 c0
       0.0039154296 -0.06414602 -0.2257954 -3.5175235
000280 3c c2 87 bd cd a0 6f c0 2a 50 27 3c b2 80 b0 bf
       -0.06628844 -3.7441895 0.010211984 -1.3789275
000290 ea 4c f3 bc de 87 8d 3d a4 18 da 3d 63 b3 cc 3b
       -0.029699761 0.0691068 0.10649231 0.0062469705
0002a0 46 a2 7a 3d 8b a0 01 3e d1 fc 98 3d 6b a8 d6 bd
       0.061189912 0.12658899 0.07470096 -0.10481342
0002b0 61 9e e5 bc 5a ec 25 3e 13 b7 2d 3d 57 dc 4e 40
       -0.028029623 0.16203442 0.04241092 3.2321985
0002c0 be 29 04 3d 73 cf a7 bd b4 77 b2 3e 6b 41 a5 bd
       0.03226637 -0.08193865 0.3485695 -0.08069118
0002d0 a2 d1 93 3f 22 e6 97 bd b2 c2 3d 3d d3 f7 cd 3d
       1.154835 -0.07416941 0.046328254 0.10057034
0002e0 2b c7 23 3f 0f 23 ea 3e 89 8e 12 3e 68 ab 46 3f
       0.6397578 0.45729873 0.14312185 0.77605295
0002f0 7c 90 4d bd dc e1 72 3d 87 f7 88 3e 94 78 f8 3c
       -0.05018662 0.059297428 0.26751348 0.030330934
000300 6f 99 e4 bd 1e be 58 3c 0b c6 00 bb 78 f7 87 3e
       -0.11162078 0.013228921 -0.0019649293 0.2655599
000310 b4 6d 51 3e ba 0a 73 bd 94 5b 05 bd c5 2f fa 3d
       0.20452005 -0.0593364 -0.03255804 0.122161426
000320 48 64 24 40 6b 19 66 3d a1 87 6e 3d d8 43 bb 3f
       2.5686207 0.056176584 0.058234815 1.4630079
000330 bf 1d 4b bb 68 9a 44 3e d5 c0 95 3a dd 2f f6 bc
       -0.0030993072 0.19199526 0.0011425266 -0.03005212
000340 21 41 02 bb c5 a0 22 3f ef c6 31 3d 8b da b1 3e
       -0.0019875246 0.63526565 0.04340261 0.34737048
000350 27 a8 98 3d 65 86 b9 bd 0b 35 4c 3c 11 92 46 3d
       0.074539475 -0.09058837 0.012463818 0.048479144
000360 b8 5d 98 bc df 16 ad bd 22 eb 5c 3e e4 7d a8 bd
       -0.018599376 -0.08451628 0.21574071 -0.08227137
000370 ad 78 e1 3d c1 3e a0 bd 51 b1 bb 3e 39 83 88 3f
       0.11009345 -0.07824469 0.3665872 1.0665046
000380 10 cc 88 3d 43 d8 7b 3e 08 77 41 3f a8 ba 12 bd
       0.06679547 0.24594216 0.7557225 -0.03582254
000390 db bd 2f bc 26 a4 1c 3d 1f 2c bd 3d e3 cc 45 3d
       -0.010726417 0.03824248 0.09236931 0.0482911
0003a0 1d 17 96 bd 1c 6a 8a 3d 32 94 85 3d d6 ef 8d 3f
       -0.07328627 0.0675852 0.06522407 1.1088817
0003b0 85 5e 99 3d 04 3f da 3e 56 72 05 3d 7a fc 05 3f
       0.07488731 0.42626202 0.032579742 0.52338374
0003c0 6a f1 b5 bc aa e7 5f bd 14 3d 8b bd ff 01 86 3e
       -0.022209842 -0.05466429 -0.06798759 0.26173398
0003d0 40 94 71 3c 63 4e c3 3e 85 a2 ab bd 33 e0 54 3d
       0.014744818 0.38145742 -0.083806075 0.051971626
0003e0 56 b5 b3 bd 94 b1 08 3d a8 ac 56 3c 99 a1 22 bc
       -0.087748215 0.033372477 0.013102688 -0.009926223
0003f0 0f a3 1c 3d 18 3b a0 3e 2b c8 02 bd 05 20 8b 3d
       0.038241442 0.31295085 -0.031929176 0.067932166

output_layer.bias f4 [10]
000000 0f f2 67 3c ea 11 c0 3c 8c ab 3f 3d 98 1d 78 3c
       0.014156832 0.023446042 0.04679446 0.015143774
000010 d8 9f af 3c f2 bc a9 3c 99 91 3f 3b de b3 ad 39
       0.021438524 0.020719979 0.002923107 0.00033131143
000020 f8 b5 51 3d ae 7b 36 bd
       0.05119893 -0.044551544
