data/models_output/models_lenet/m_lenet2.pt (torch_old, 249648 bytes, 10 tensors)

c1.weight f4 [6, 3, 5, 5]
-0.4465944 -0.6028044 -0.585858 -0.4004111 -0.46227846 -0.49049538 -0.46999896 -0.42169338
-0.53376365 -0.56575626 -0.45330945 -0.6580458 -0.49048448 -0.54159176 -0.51007974 -0.4699756
-0.48425564 -0.5707555 -0.3935847 -0.46889752 -0.44140336 -0.520302 -0.43904537 -0.4910044
-0.49837777 -0.4246869 -0.5976903 -0.55933243 -0.43540314 -0.5534454 -0.50574476 -0.50838006
-0.509075 -0.46447203 -0.48392862 -0.4258445 -0.4391027 -0.48750287 -0.455827 -0.47294784
-0.599574 -0.3907956 -0.43827042 -0.46194708 -0.40212774 -0.399126 -0.54448164 -0.44722953
-0.49404186 -0.41612148 -0.5178542 -0.4031715 -0.43881172 -0.5341634 -0.52578616 -0.4356319
-0.41502336 -0.40595216 -0.41875017 -0.35557097 -0.5765037 -0.42721197 -0.4535451 -0.45392194
-0.41903076 -0.46909872 -0.47702774 -0.40827057 -0.47690633 -0.45986813 -0.40111592 -0.39976898
-0.40715346 -0.44074187 -0.31690854 -4.990807 -5.0660133 -5.127447 -4.8584623 -4.6853814
-5.2427125 -5.38193 -5.512237 -5.0858626 -4.822514 -5.047921 -5.2375674 -5.3433104
-5.1187325 -4.889412 -4.6814528 -4.926334 -5.0060186 -5.0321784 -4.9255075 -4.4578257
-4.4681163 -4.642204 -4.665237 -4.6089053 -4.9447684 -5.096132 -5.037266 -4.7082987
-4.5815396 -4.9976377 -5.273204 -5.3042703 -5.038978 -4.6750813 -4.9925094 -5.288875
-5.2772827 -5.1076884 -4.747268 -4.5789 -4.7235923 -5.1098075 -4.9578466 -4.71701
-4.278437 -4.4586363 -4.5957904 -4.6362133 -4.5334167 -4.6853127 -4.854242 -4.7986436
-4.625689 -4.340637 -4.689717 -4.9816847 -4.9400215 -4.8354425 -4.4872003 -4.612988
-4.7344527 -4.8675933 -4.8178153 -4.4971204 -4.1477356 -4.3953876 -4.598892 -4.562359
-4.215788 -3.8942175 -4.003092 -4.195595 -4.1743836 -4.0503716 -0.12147487 0.014204069
0.008559803 -0.015626507 -0.14297256 -0.03515772 -0.06536496 -0.011874329 0.04774738 -0.04994719
-0.14148645 -0.07943883 0.050220143 0.05104205 -0.06859969 0.0022432995 -0.10518963 -0.008666543
-0.088396214 0.053229883 -0.0438031 -0.11119287 -0.078744866 0.06835401 -0.07014235 0.0065674083
0.039337967 0.024897859 0.042505972 -0.036858562 0.024484308 0.040488124 0.034896802 -0.0083591845
0.014218741 -0.018475052 -0.05661411 -0.106489405 -0.10034629 -0.03447071 -0.12550034 -0.05239196
-0.012765307 0.011389352 -0.023734286 -0.14350143 -0.04472433 -0.023136243 0.044141624 -0.052720215
-0.14961837 -0.1275336 0.036831386 -0.117826015 -0.0125959795 -0.013176408 0.049689543 -0.13715905
0.010370122 -0.12080665 -0.058022946 0.0791888 -0.14174463 0.07282998 -0.014751348 0.0243604
0.02515378 -0.011350213 0.0063916 0.011612348 -0.10179861 0.025196433 0.05240507 -0.08023925
-0.09271855 -0.039946336 -0.051722854 0.01355557 -0.035831954 -0.03597245 0.05570051 -0.070358895
-0.09762371 0.043599546 -0.023644205 -0.08531201 0.020618306 -0.15778105 -0.014558321 -0.0941756
-0.065532684 -0.07584587 0.076794714 -0.10724583 -0.060445648 -0.020693732 -0.10024354 -0.0315315
-0.02608732 -0.034144904 -0.15755217 -0.09806622 0.0062674247 -0.06847111 0.050211042 -0.12147979
00000000: 05a8 e4be 6451 1abf cafa 15bf af02 cdbe
00000010: c3af ecbe 3622 fbbe b4a3 f0be 32e8 d7be
00000020: bca4 08bf 67d5 10bf 2d18 e8be b175 28bf
00000030: c820 fbbe c2a5 0abf 9694 02bf a4a0 f0be
00000040: 5bf0 f7be 081d 12bf ef83 c9be 5613 f0be
00000050: 9fff e1be 8332 05bf 8eca e0be ee64 fbbe
00000060: 5f2b ffbe 9070 d9be 3b02 19bf 6930 0fbf
00000070: 29ed debe 99ae 0dbf 7d78 01bf 3225 02bf
00000080: bd52 02bf 47cf edbe 7ec5 f7be 4a08 dabe
00000090: 12d2 e0be fa99 f9be 2862 e9be 3826 f2be
000000a0: af7d 19bf 5c16 c8be fb64 e0be 5484 ecbe
000000b0: b0e3 cdbe 3e5a ccbe 2663 0bbf 45fb e4be
000000c0: 0ef3 fcbe e00d d5be 1892 04bf 7f6c cebe
000000d0: eeab e0be efbe 08bf ec99 06bf 250b dfbe
000000e0: f17d d4be f6d8 cfbe 6c66 d6be 660d b6be
000000f0: bf95 13bf 87bb dabe 1037 e8be 7568 e8be
00000100: 338b d6be b52d f0be fb3c f4be d708 d1be
00000110: 112d f4be d673 ebbe 115f cdbe 85ae ccbe
00000120: 6b76 d0be eba8 e1be d641 a2be b1b4 9fc0
00000130: c81c a2c0 0c14 a4c0 8678 9bc0 a5ee 95c0
00000140: 4dc4 a7c0 c538 acc0 3f64 b0c0 63bf a2c0
00000150: 0952 9ac0 9288 a1c0 279a a7c0 66fc aac0
00000160: a8cc a3c0 1076 9cc0 76ce 95c0 87a4 9dc0
00000170: 4e31 a0c0 9b07 a1c0 c29d 9dc0 82a6 8ec0
00000180: cffa 8ec0 ef8c 94c0 9f49 95c0 277c 93c0
00000190: 8b3b 9ec0 8313 a3c0 4831 a1c0 62aa 96c0
000001a0: f99b 92c0 a6ec 9fc0 16be a8c0 95bc a9c0
000001b0: 4f3f a1c0 449a 95c0 a3c2 9fc0 773e a9c0
000001c0: 80df a8c0 2f72 a3c0 9fe9 97c0 5986 92c0
000001d0: ab27 97c0 8b83 a3c0 aea6 9ec0 bff1 96c0
000001e0: f5e8 88c0 26ad 8ec0 b710 93c0 dc5b 94c0
000001f0: c011 91c0 15ee 95c0 f355 9bc0 7d8e 99c0
00000200: a505 94c0 80e6 8ac0 2912 96c0 f669 9fc0
00000210: a814 9ec0 f2bb 9ac0 2597 8fc0 999d 93c0
00000220: a380 97c0 53c3 9bc0 8b2b 9ac0 69e8 8fc0
00000230: 40ba 84c0 04a7 8cc0 202a 93c0 d8fe 91c0
00000240: bce7 86c0 dc3a 79c0 5419 80c0 5042 86c0
00000250: 8d94 85c0 a59c 81c0 d1c7 f8bd 2fb8 683c
00000260: 6a3e 0c3c 2903 80bc 6667 12be 8b01 10bd
00000270: 10de 85bd 8c8c 42bc c292 433d 6d95 4cbd
00000280: d3e1 10be d3b0 a2bd a3b3 4d3d 7811 513d
00000290: ff7d 8cbd 5204 133b a96d d7bd 1efe 0dbc
000002a0: 1309 b5bd 9407 5a3d e16a 33bd 16b9 e3bd
000002b0: fd44 a1bd 30fd 8b3d cba6 8fbd 6a33 d73b
000002c0: d920 213d 98f6 cb3c be1a 2e3d 01f9 16bd
000002d0: 5193 c83c e0d6 253d f3ef 0e3d f6f4 08bc
000002e0: b9f5 683c fe58 97bc 32e4 67bd 1e17 dabd
000002f0: 5b82 cdbd 2931 0dbd 2983 00be f498 56bd
00000300: 9425 51bc 689a 3a3c 686e c2bc 0af2 12be
00000310: dc30 37bd 3888 bdbc d9cd 343d 27f1 57bd
00000320: 8f35 19be 2b98 02be 82dc 163d c44e f1bd
00000330: 5e5f 4ebc dce1 57bc 4387 4b3d 6c73 0cbe
00000340: 72e7 293c 7a69 f7bd 78a9 6dbd bd2d a23d
00000350: 8125 11be e227 953d a3af 71bc 768f c73c
00000360: 4d0f ce3c 3ef6 39bc a070 d13b b841 3e3c
00000370: ca7b d0bd c068 ce3c b3a6 563d 7a54 a4bd
00000380: 39e3 bdbd c59e 23bd 58db 53bd 2e18 5e3c
00000390: 87c4 12bd d957 13bd 3826 643d 5318 90bd
000003a0: f1ee c7bd 7095 323d 7eb1 c1bc 10b8 aebd
000003b0: b9e7 a83c 5b91 21be 0686 6ebc 23df c0bd
000003c0: 0036 86bd 1455 9bbd 8c46 9d3d b4a3 dbbd
000003d0: db95 77bd e785 a9bc 7c4c cdbd 2d27 01bd
000003e0: 13b5 d5bc 87db 0bbd 5b55 21be f1d6 c8bd
000003f0: f85e cd3b 953a 8cbd 18aa 4d3d 65ca f8bd

c1.bias f4 [6]
-0.09734859 0.0750384 -0.065541916 -0.046331882 -0.014398651 -0.04095468
00000000: b35e c7bd bcad 993d d73a 86bd 80c6 3dbd
00000010: 52e8 6bbc 18c0 27bd

c3.weight f4 [16, 6, 5, 5]
-0.10637796 -0.11749706 -0.20219867 -0.1986964 -0.10979293 -0.18415266 -0.1867686 -0.20335433
-0.19701219 -0.23492159 -0.12937154 -0.17220087 -0.123688266 -0.17752963 -0.14944054 -0.18398196
-0.1557163 -0.17589433 -0.13093092 -0.12739101 -0.17967582 -0.20505951 -0.14392133 -0.25455624
-0.22095256 -5.158514 -5.1202574 -5.2708693 -5.5708046 -5.7166133 -5.151018 -4.9968786
-4.957412 -5.242093 -5.5777154 -5.115891 -4.9754095 -4.778373 -4.722286 -5.036057
-4.962191 -4.912066 -4.688448 -4.3353086 -4.484694 -5.0982637 -5.1249566 -4.999247
-4.7275934 -4.683831 -0.07081748 -0.10488006 0.02574179 -0.0041952175 -0.07972578 -0.060196366
-0.006737821 -0.03305109 -0.14718087 -0.06027216 -0.09695805 -0.025806878 -0.012053916 -0.039250713
-0.1152653 -0.15094212 -0.12492912 -0.12859692 -0.09148902 -0.09708422 -0.15442765 -0.09885178
-0.024486365 -0.038275007 -0.08029986 0.04382064 -0.053929348 0.053706814 -0.0447768 -0.02051067
0.070575595 -0.012348422 -0.07654388 -0.020145413 0.059042282 -0.0696174 0.060184687 0.036510646
-0.023501994 0.06926181 0.03161178 -0.020408973 -0.07101801 0.052371476 0.01760399 -0.03484348
-0.055512227 0.022074206 -0.053384714 -0.011459694 0.017065326 0.0629766 0.06752644 0.005099468
-0.060566954 0.07327433 0.072075166 -0.040956773 -0.011441677 0.008207788 0.035440456 0.010083287
-0.0004651919 -0.06565009 0.06518117 -0.04389804 0.054960858 -0.04661586 0.07618982 -0.07675059
-0.04998481 0.018407539 -0.056628287 -0.04229825 0.04421534 -0.07187614 -0.01990704 -0.02808765
-0.052093312 0.03528802 0.0129421605 0.030469595 0.073831566 -0.03721548 0.027825527 0.038202878
0.025905633 0.023839561 0.032178264 -0.050012372 -0.028806744 -0.04645597 -0.04553888 0.055262115
-0.06102891 -0.05950417 0.045131464 -0.069009684 -0.0012269336 0.06365667 -0.08508757 -0.04729595
-0.041080356 -0.05931766 0.045928426 0.025438972 0.047462855 -0.063673735 -0.022065738 0.029741831
-0.08214325 0.033937793 -0.05330193 -0.029689018 0.027040299 -0.048814617 0.039990716 -0.08304421
-0.07989213 -0.012480706 -0.012534922 0.01538829 0.06795216 -0.044323243 -0.044040438 -0.3011885
-0.20676066 -0.08229506 -0.12794997 -0.1812829 -0.15460227 -0.22399378 -0.20038678 -0.34661216
-0.23575068 -0.19229375 -0.22795308 -0.13208564 -0.17013247 -0.16805786 -0.23254558 -0.11862192
-0.16620316 -0.057645313 -0.10904445 -0.20383394 -0.26877823 -0.26705217 -0.13877995 -0.11025616
-0.04127287 0.032515746 -0.06462888 0.055997647 0.012347756 -0.06360022 0.07348028 0.0175391
-0.007570672 -0.02897341 -0.012653483 -0.011709386 -0.023080999 -0.07410664 -0.061093777 0.006783297
0.07299905 -0.03257012 0.065084904 -0.08401018 -0.08379923 0.061919387 -0.0032799358 0.04654042
0.038612466 -0.04296608 0.023657124 0.009072251 -0.0071908864 0.061180152 -0.07838688 0.035272438
0.026312426 0.05912042 -0.007906634 -0.008304768 -0.022330746 -0.03864231 0.06262301 -0.02355387
-0.002251202 -0.032174543 0.07818967 0.046167314 0.060504418 0.073508255 -0.010867595 -0.043652613
-0.030746374 0.005862986 0.0051419125 0.057864852 -0.006346695 0.037122134 -0.07086687 -0.032928884
00000000: b0dc d9bd 4ca2 f0bd 2b0d 4fbe 1277 4bbe
00000010: 1edb e0bd 8492 3cbe 4540 3fbe 1e3c 50be
00000020: 90bd 49be 498f 70be f979 04be 6d55 30be
00000030: 4650 fdbd 54ca 35be f106 19be c465 3cbe
00000040: 1874 1fbe a51d 34be c112 06be ca72 02be
00000050: f0fc 37be 1ffb 51be 1d60 13be 3255 82be
00000060: 6341 62be 8c12 a5c0 26d9 a3c0 f6aa a8c0
00000070: 0844 b2c0 7fee b6c0 24d5 a4c0 6ee6 9fc0
00000080: 1ea3 9ec0 3abf a7c0 a57c b2c0 61b5 a3c0
00000090: 8e36 9fc0 6ee8 98c0 f81c 97c0 6127 a1c0
000000a0: 45ca 9ec0 a52f 9dc0 c407 96c0 d9ba 8ac0
000000b0: 9d82 8fc0 fa24 a3c0 a5ff a3c0 d5f9 9fc0
000000c0: 7248 97c0 f2e1 95c0 c108 91bd 5bcb d6bd
000000d0: 72e0 d23c 0978 89bb 4547 a3bd 7790 76bd
000000e0: f0c8 dcbb 9460 07bd 95b6 16be f1df 76bd
000000f0: f191 c6bd f268 d3bc ca7d 45bc 5bc5 20bd
00000100: 3710 ecbd 9290 1abe d7da ffbd e9ae 03be
00000110: 985e bbbd 17d4 c6bd 4822 1ebe cd72 cabd
00000120: a197 c8bc 41c6 1cbd 4174 a4bd 457d 333d
00000130: 05e5 5cbd adfb 5b3d e167 37bd fe05 a8bc
00000140: f089 903d 0951 4abc 0ac3 9cbd fe07 a5bc
00000150: 52d6 713d 9193 8ebd 3884 763d 308c 153d
00000160: 4187 c0bc 23d9 8d3d 5b7b 013d b830 a7bc
00000170: e471 91bd 7983 563d 3e36 903c 09b8 0ebd
00000180: ca60 63bd f7d4 b43c eea9 5abd 71c1 3bbc
00000190: 95cc 8b3c e0f9 803d 4d4b 8a3d 7019 a73b
000001a0: 0e15 78bd da10 963d 259c 933d 4ac2 27bd
000001b0: df75 3bbc f579 063c 032a 113d 5f34 253c
000001c0: 00e5 f3b9 8e73 86bd b57d 853d 6ece 33bd
000001d0: a31e 613d 46f0 3ebd 6909 9c3d 6a2f 9dbd
000001e0: dfbc 4cbd 68cb 963c 10f3 67bd ee40 2dbd
000001f0: 251b 353d cc33 93bd 1714 a3bc 1218 e6bc
00000200: cc5f 55bd 2c8a 103d 5b0b 543c 5f9b f93c
00000210: 0135 973d 426f 18bd 5cf2 e33c 9f7a 1c3d
00000220: 0d38 d43c 2f4b c33c 5bcd 033d c6d9 4cbd
00000230: 1ffc ebbc 9d48 3ebd fa86 3abd 875a 623d
00000240: 73f9 79bd a5ba 73bd c5db 383d f354 8dbd
00000250: 0fd1 a0ba 6e5e 823d 6442 aebd 66b9 41bd
00000260: e043 28bd 13f7 72bd 721f 3c3d 6465 d03c
00000270: 6968 423d 6067 82bd 35c3 b4bc 24a5 f33c
00000280: b83a a8bd 5b02 0b3d 2053 5abd 6236 f3bc
00000290: 9e83 dd3c d6f1 47bd 4ecd 233d 1513 aabd
000002a0: 7c9e a3bd e07b 4cbc 465f 4dbc 2b1f 7c3c
000002b0: 812a 8b3d 4a8c 35bd bf63 34bd 6135 9abe
000002c0: 11b9 53be 508a a8bd 5105 03be 39a2 39be
000002d0: 0f50 1ebe a05e 65be 3132 4dbe 2677 b1be
000002e0: a068 71be a7e8 44be 886c 69be 7541 07be
000002f0: 3537 2ebe 5c17 2cbe 6e20 6ebe 0df0 f2bd
00000300: 2931 2abe 7e1d 6cbd b252 dfbd d8b9 50be
00000310: 4d9d 89be 10bb 88be 551c 0ebe fbcd e1bd
00000320: be0d 29bd 3b2f 053d 255c 84bd ca5d 653d
00000330: 3e4e 4a3c d540 82bd d47c 963d 29ae 8f3c
00000340: 6613 f8bb a559 edbc 8e50 4fbc b9d8 3fbc
00000350: 5d14 bdbc 39c5 97bd 783d 7abd 6b46 de3b
00000360: 8780 953d 3f68 05bd 3c4b 853d 870d acbd
00000370: ee9e abbd 2f9f 7d3d 31f4 56bb 2ba1 3e3d
00000380: 1b28 1e3d 33fd 2fbd 96cc c13c c7a3 143c
00000390: 87a1 ebbb 0a98 7a3d 4d89 a0bd d579 103d
000003a0: 288d d73c 4128 723d d48a 01bc b910 08bc
000003b0: f8ee b6bc 6647 1ebd 7e40 803d 0cf4 c0bc
000003c0: e788 13bb 74c9 03bd e821 a03d f019 3d3d
000003d0: 7bd3 773d 7f8b 963d ff0d 32bc 15cd 32bd
000003e0: d2df fbbc 4b1e c03b 7d7d a83b b203 6d3d
000003f0: f0f7 cfbb 610d 183d a622 91bd 70e0 06bd

c3.bias f4 [16]
-0.00642774 -0.12240721 -0.011488292 2.5935378 -0.05779286 -0.17575029 -0.022254637 -0.9706709
-0.002816066 -1.1876631 -0.058694836 -0.0061079324 -0.041485447 -0.027172701 -0.0075281295 -0.042990968
00000000: cb9f d2bb a2b0 fabd 6439 3cbc 86fc 2540
00000010: 35b8 6cbd e2f7 33be 5b4f b6bc e37d 78bf
00000020: bf8d 38bb 5805 98bf ff69 70bd 0d25 c8bb
00000030: a5ec 29bd 4999 debc 87ae f6bb 4c17 30bd

c5.weight f4 [120, 400]
-0.017452803 0.018507399 0.030545393 -0.008188514 -0.023652371 0.037124135 -0.029093657 -0.012117323
-0.030680228 -0.007273311 -0.0043441765 0.032464605 -0.008968228 0.002612171 -0.026508898 0.0030859902
0.013783369 -0.02718023 -0.012340469 -0.017766861 0.03950474 -0.05079377 -0.024960436 -0.0404561
-0.02385168 0.026629496 0.021947745 0.0033748858 0.0111939125 -0.0014441228 0.021879733 0.048685495
0.031106729 0.0266953 0.009352001 -0.015506327 0.013189552 0.044184636 -0.017484237 0.0031593964
-0.048082042 -0.007485458 0.011674141 -0.0039288057 -0.0012175031 -0.024883583 -0.031126965 0.0010796491
-0.04703991 0.026748572 -0.005073428 -0.043767072 0.04621356 -0.016972512 -0.032017577 0.009114156
0.022103649 -0.012369871 0.043869797 -0.03538969 0.0050774296 0.014059355 0.031843107 -0.025958687
-0.036826245 0.033710066 -0.024264231 -0.020308712 0.047733113 -0.031114787 -0.009855989 0.009287058
-0.015378176 0.015052358 -0.017102346 -0.011576324 0.017180491 -0.0152485855 -0.010152579 -0.021937672
0.02178328 0.032965194 0.038797665 -0.013796976 0.020666879 -0.033243116 -0.010383139 -0.035676494
-0.0432373 -0.01429694 -0.008355864 -0.0023523024 -0.028030332 -0.006626105 0.034154344 -0.01160954
0.028573235 -0.026700474 -0.00459216 0.042562176 -0.059221223 -0.12333052 -0.08707428 -0.10608291
-0.105604075 -0.11777189 -0.07884531 -0.112634234 -0.05941836 -0.06491391 -0.064765655 -0.064607784
-0.09503658 -0.049710315 -0.045873012 -0.043262184 -0.047984436 -0.086056575 -0.047836717 -0.03730989
-0.064327106 -0.034932435 -0.07999993 -0.103167616 -0.079590455 0.026801728 -0.03805808 -0.044202182
0.027196595 0.04889145 -0.04434369 -0.042976372 0.03968727 -0.012563743 0.004452383 -0.049253102
-0.0177097 -0.027506385 0.016715853 0.013760296 0.003693205 -0.00031839166 0.0378356 0.008026137
0.008006927 -0.006191112 -0.024966875 -0.009965188 0.012183953 -0.05199381 0.010933547 -0.016501095
0.023524305 -0.02707993 -0.06338468 0.0017239883 -0.043156657 -0.026940146 -0.028807227 -0.027818684
0.0129609 -0.0041799084 -0.03106755 0.032449797 -0.032158967 0.00687631 -0.0016935671 -0.014107245
-0.05637849 0.0073260344 0.037139803 -0.024679761 -0.05203676 -0.060062196 -0.05141868 -0.025298351
-0.0051567564 -0.0069481716 -0.046483792 -0.06381963 0.0022684087 -0.040531453 -0.012097471 -0.021753311
-0.061282158 -0.0013934325 -0.006684778 -0.05181888 -0.027348679 -0.03880642 -0.0626048 -0.01255832
0.013775887 -0.057789147 0.004546382 0.026141735 -0.037383348 0.0222614 -0.042353187 0.028363448
-0.063219205 -0.07368235 0.0012046534 -0.02555022 -0.022099236 0.0083947405 -0.031220779 -0.045477
-0.057611585 -0.027648268 0.0240218 -0.07576155 -0.03148059 -0.058558445 0.011867981 0.013916639
-0.06015599 -0.044067666 -0.05570562 0.009656319 -0.00074985885 -0.009724524 -0.012281835 -0.017027127
0.011194453 -0.039450645 -0.0054065934 -0.0038379002 -0.05285218 -0.0056947027 -0.013413416 -0.06689267
0.0010121444 0.009448951 -0.020802263 0.009154398 -0.0576375 -0.02195485 -0.071383215 -0.019618126
0.020946238 -0.065756544 -0.04781178 -0.02236079 -0.013737811 -0.015968835 0.019391978 0.0019496407
-0.045127183 0.012563379 -0.05274261 0.013740052 -0.06013631 -0.018434247 -0.03142138 -0.0014356788
00000000: 2ef9 8ebc d49c 973c 553a fa3c 1e29 06bc
00000010: 9ec2 c1bc 7a0f 183d d255 eebc bd87 46bc
00000020: 1a55 fbbc f454 eebb 9859 8ebb 9bf9 043d
00000030: 79ef 12bc f530 2b3b 3029 d9bc 533e 4a3b
00000040: a4d3 613c 13a9 debc ae2f 4abc cf8b 91bc
00000050: b9cf 213d 210d 50bd d479 ccbc 4cb5 25bd
00000060: 9964 c3bc 1a26 da3c c2cb b33c 302d 5d3b
00000070: ac66 373c b848 bdba 203d b33c 716a 473d
00000080: 8ad3 fe3c 1ab0 da3c 2339 193c 400e 7ebc
00000090: fe18 583c f3fa 343d 1a3b 8fbc e00d 4f3b
000000a0: adf1 44bd 9348 f5bb e544 3f3c 36bd 80bb
000000b0: a094 9fba a8d8 cbbc fafd febc 0383 8d3a
000000c0: ecac 40bd d21f db3c 003f a6bb 1a45 33bd
000000d0: 6e4a 3d3d f009 8bbc dd24 03bd 8a53 153c
000000e0: b612 b53c 00ab 4abc d1b0 333d c8f4 10bd
000000f0: 9160 a63b 3559 663c eb6d 023d 50a7 d4bc
00000100: 1ed7 16bd 9113 0a3d c8c5 c6bc 755e a6bc
00000110: cc83 433d 70e4 febc 047b 21bc bf28 183c
00000120: bff4 7bbc 2a9e 763c 381a 8cbc 9faa 3dbc
00000130: 1abe 8c3c 34d5 79bc 0157 26bc a2b6 b3bc
00000140: d972 b23c 8306 073d 4dea 1e3d b60c 62bc
00000150: 964d a93c ef29 08bd 0b1e 2abc 8421 12bd
00000160: 9819 31bd b63d 6abc 09e7 08bc 1629 1abb
00000170: de9f e5bc cc1f d9bb 6de5 0b3d f135 3ebc
00000180: 6b12 ea3c f4ba dabc d579 96bb ad55 2e3d
00000190: f491 72bd b694 fcbd 0054 b2bd ff41 d9bd
000001a0: f346 d8bd 6332 f1bd a679 a1bd c7ac e6bd
000001b0: ab60 73bd 96f1 84bd dba3 84bd 1651 84bd
000001c0: 8aa2 c2bd 0b9d 4bbd 57e5 3bbd b033 31bd
000001d0: 548b 44bd 6e3e b0bd 6ff0 43bd 41d2 18bd
000001e0: eebd 83bd 5015 0fbd 01d7 a3bd 8b49 d3bd
000001f0: 5200 a3bd 4c8f db3c cae2 1bbd 590d 35bd
00000200: 65cb de3c 6742 483d bba1 35bd fe07 30bd
00000210: 1e8f 223d 28d8 4dbc 4ce5 913b 9fbd 49bd
00000220: ef13 91bc 1255 e1bc afef 883c dd72 613c
00000230: b309 723b ceed a6b9 81f9 1a3d 0f80 033c
00000240: 7c2f 033c d0de cabb 5587 ccbc 0745 23bc
00000250: 349f 473c 76f7 54bd 9f22 333c 4e2d 87bc
00000260: 0bb6 c03c bbd6 ddbc d4cf 81bd 73f7 e13a
00000270: 09c5 30bd 95b1 dcbc 22fd ebbc 02e4 e3bc
00000280: f459 543c 9df7 88bb 6081 febc 14ea 043d
00000290: 1fb9 03bd ab52 e13b affa ddba 1322 67bc
000002a0: 22ed 66bd 3b0f f03b e81f 183d 362d cabc
000002b0: 7f24 55bd c703 76bd 659c 52bd 7d3e cfbc
000002c0: 02fa a8bb 7dad e3bb ca65 3ebd deb3 82bd
000002d0: 95a9 143b 4f04 26bd 7934 46bc 0034 b2bc
000002e0: 0003 7bbd d6a3 b6ba fb0b dbbb 0940 54bd
000002f0: 560a e0bc 7bf3 1ebd f236 80bd 69c1 4dbc
00000300: 42b4 613c 50b4 6cbd d1f9 943b 3127 d63c
00000310: 481f 19bd 8a5d b63c 897a 2dbd 765a e83c
00000320: 1279 81bd c6e6 96bd 76e5 9d3a b24e d1bc
00000330: 7509 b5bc 188a 093c b8c2 ffbc 1746 3abd
00000340: 20fa 6bbd 9f7e e2bc 5ec9 c43c df28 9bbd
00000350: cbf1 00bd fbda 6fbd ec71 423c 9d02 643c
00000360: 2166 76bd 4c80 34bd 942b 64bd 8a35 1e3c
00000370: 2d92 44ba 9c53 1fbc c039 49bc 797c 8bbc
00000380: f068 373c 0097 21bd cb29 b1bb 4885 7bbb
00000390: 877b 58bd a19a babb f2c3 5bbc 06ff 88bd
000003a0: eea9 843a c6cf 1a3c 8269 aabc 54fc 153c
000003b0: 4d15 6cbd a8da b3bc 5d31 92bd 31b6 a0bc
000003c0: 7297 ab3c 5eab 86bd 49d6 43bd fa2d b7bc
000003d0: 8e14 61bc 13d1 82bc eddb 9e3c 168b ff3a
000003e0: 48d7 38bd a1d6 4d3c a308 58bd f41d 613c
000003f0: 7e51 76bd 6b03 97bc b4b3 00bd 632d bcba

c5.bias f4 [120]
-0.0035050206 0.0527155 0.024348097 0.006454411 -0.033005025 -0.04601248 -0.04106232 0.01615882
0.046817172 -0.02236736 -0.047927167 -0.026010202 -0.0360024 -0.028755538 -0.023225002 -0.015687313
-0.04936474 0.04892439 -0.027254874 0.03275058 -0.0011244677 -0.02029531 -0.021145083 -0.05270954
-0.2052525 -0.005515378 0.013745346 -0.043299902 -0.04934805 -0.010904806 -0.032373577 -0.06572023
-0.048098117 -0.009744034 -0.06449115 0.009380862 0.07566055 0.027903035 -0.11860587 -0.17367186
0.048303183 -0.05118714 -0.047390234 -0.05537198 -0.024472816 -0.03706566 0.039397374 -0.018233838
-0.06522652 -0.03156968 -0.03357909 -0.012096317 -0.003755133 -0.04749359 -0.007929517 -0.08290123
0.0230163 -0.17730522 0.012564764 -0.15452008 -0.1300374 0.02616438 0.017066438 -0.013894688
-0.12949546 0.015061227 -0.022349289 -0.034996852 -0.018427135 -0.05319708 0.00769315 0.03910506
-0.119650334 0.0039921063 0.026865445 -0.015810018 -0.032462742 0.11804321 -0.019304926 0.028621463
0.011134395 0.014116325 -0.019162055 0.04509851 -0.003693288 -0.007970375 -0.044339683 0.19667833
-0.152364 -0.014175655 0.028634641 0.0075892974 -0.022444539 -0.04327156 0.024372278 -0.07330933
0.024891749 -0.025000622 -0.0025485384 -0.048034873 -0.034231003 -0.064474724 -0.00707674 -0.013277463
-0.048188835 -0.0416977 -0.08275915 -0.03194665 0.025959894 0.0076493723 -0.14007905 -0.02480868
-0.10613965 0.021469228 0.033652384 0.045098044 0.019526575 -0.02463905 -0.044293 -0.00014339875
00000000: 7db4 65bb 35ec 573d a975 c73c 867f d33b
00000010: 4730 07bd 9577 3cbd f730 28bd 805f 843c
00000020: 5dc3 3f3d c13b b7bc 474f 44bd 5913 d5bc
00000030: 4177 13bd bc90 ebbc 5c42 bebc ae82 80bc
00000040: ae32 4abd f164 483d 9d45 dfbc 7925 063d
00000050: e062 93ba 5a42 a6bc 7438 adbc f5e5 57bd
00000060: b62d 52be 58ba b4bb 2934 613c 3d5b 31bd
00000070: 2e21 4abd 12aa 32bc 289a 04bd 5498 86bd
00000080: 8802 45bd 71a5 1fbc f013 84bd 30b2 193c
00000090: ebf3 9a3d e894 e43c a2e7 f2bd 09d7 31be
000000a0: 8fd9 453d 9ba9 51bd 431c 42bd bbcd 62bd
000000b0: 377b c8bc 29d2 17bd 245f 213d 215f 95bc
000000c0: 7b95 85bd 354f 01bd 3a8a 09bd a12f 46bc
000000d0: ad18 76bb a388 42bd ceea 01bc 1fc8 a9bd
000000e0: ae8c bc3c 808f 35be 71dc 4d3c 833a 1ebe
000000f0: 8628 05be af56 d63c eace 8b3c 8ca6 63bc
00000100: 759a 04be 5dc3 763c db15 b7bc dc58 0fbd
00000110: 81f4 96bc 2ee5 59bd d216 fc3b a12c 203d
00000120: 3c0b f5bd 37d0 823b ec14 dc3c 0384 81bc
00000130: a7f7 04bd a3c0 f13d 5d25 9ebc 8f77 ea3c
00000140: 0a6d 363c 2948 673c bef9 9cbc 37b9 383d
00000150: 170b 72bb 2d96 02bc 879d 35bd 0b66 493e
00000160: 4f05 1cbe 0241 68bc 3293 ea3c a4af f83b
00000170: 9cdd b7bc 853d 31bd 5fa8 c73c 3423 96bd
00000180: c8e9 cb3c 1bce ccbc 6105 27bb 37c0 44bd
00000190: cf35 0cbd 530b 84bd ffe3 e7bb b789 59bc
000001a0: a861 45bd 35cb 2abd a17d a9bd 7eda 02bd
000001b0: d8a9 d43c 96a7 fa3b e270 0fbe 933b cbbc
000001c0: bf5f d9bd 3ce0 af3c 15d7 093d bab8 383d
000001d0: 32f6 9f3c d5d7 c9bc 946c 35bd 4f5d 16b9

f6.weight f4 [84, 120]
-0.036909133 0.07433401 0.060561776 -0.018923886 0.0024009794 -0.00010166317 0.08718869 -0.01800204
-0.08443281 0.06086211 0.0062353015 -0.04642471 -0.0047810674 0.072786495 0.061581 0.08618355
-0.03469569 -0.073755525 -0.04689428 -0.08423433 -0.07606015 -0.080504656 -0.07720256 0.06227228
0.0644619 0.03509243 0.03492686 0.070195094 0.060812622 -0.025781848 0.04501252 -0.0267336
0.021964781 0.017472439 -0.009256154 -0.08950224 -0.047862865 -0.0054068565 0.020616733 0.066351846
-0.058791853 0.02426669 -0.033475198 -0.060099408 0.08893505 -0.049750764 -0.05939201 -0.06885417
0.026041433 -0.034063376 0.057477668 -0.04483756 -0.05983556 -0.054132454 -0.087789096 -0.005962983
-0.06766101 -0.0540473 -0.033726014 -0.08216613 0.003937535 -0.08055617 0.037893206 0.0553018
-0.034416873 0.025968336 0.048079252 -0.087868646 0.007990949 -0.021377183 -0.083066635 0.066126615
0.071707085 0.0015753955 0.006186262 -0.049698953 -0.012637429 -0.090771765 0.03598714 -0.0669652
-0.07501647 -0.042719163 0.038570717 -0.023436695 0.022125244 -0.08181688 0.040338546 -0.053298883
0.0014462844 -0.06276052 0.06342943 0.009001963 -0.050390784 0.030364066 -0.08939474 -0.064525075
0.014121085 0.005559869 -0.045155335 0.085677296 -0.010535464 -0.0902004 -0.010057092 0.012577072
-0.0039421096 0.039006904 -0.08891827 0.0248404 0.010247201 -0.01233045 -0.035273615 -0.05751178
-0.08005218 -0.06003217 -0.012644656 0.06762388 -0.05396882 -0.052997544 -0.0475531 0.034483284
-0.001443539 -0.07110308 0.015953025 0.017915376 0.043422565 -0.060003523 0.060069885 0.008906184
0.030944725 -0.09214738 -0.028370695 0.006907811 0.04855415 0.03595698 0.035415035 -0.069137625
-0.14389572 0.03507555 -0.21186817 -0.020264117 -0.08985566 0.06586917 -0.030092273 -0.15941666
-0.10925193 0.00070372655 -0.0046295384 -0.08095668 -0.052167315 -0.029844027 -0.035377093 -0.032361913
0.014408259 -0.005589414 0.067649454 -0.148513 0.05370272 -0.03897857 -0.109867655 -0.10035622
-0.014451439 -0.18159856 -0.12033113 0.006259034 -0.06524492 -0.09381864 -0.026341237 0.008302378
-0.037386343 -0.10598411 -0.01740335 0.07322168 0.06589794 0.04988487 -0.089660615 -0.1342018
-0.0038465655 -0.05120112 0.058676355 -0.17538339 -0.009198234 0.046304237 -0.035368938 -0.07305851
-0.06421095 0.052827254 -0.020748856 -0.02180701 -0.07244797 -0.21266018 -0.010431735 -0.055627014
-0.0490799 -0.059126616 -0.1687677 -0.15380993 -0.069283456 0.059277438 -0.017774317 0.006446452
0.039981667 -0.06258168 -0.03104287 0.056653492 0.033647817 -0.12242201 -0.08302193 -0.060620256
-0.041371398 0.018303301 0.03444999 0.0588236 0.08781673 -0.08600959 0.010243141 -0.11664852
0.011415256 -0.022513816 -0.108785406 -0.04050961 -0.008173414 0.06497635 -0.0093803955 -0.06545114
-0.07884985 -0.057117045 -0.021230139 0.03783717 0.025040412 -0.06713459 0.05575087 0.0004447475
-0.11953569 -0.07899673 -0.003359077 -0.02960676 -0.08748978 0.072482035 -0.053556893 0.052410122
0.0013958293 0.03453671 -0.0122320205 -0.15704955 -0.04504104 -0.0053019095 -0.025125232 -0.05516811
0.072348386 -0.1513972 -0.11436025 -0.029014556 -0.016715003 -0.032461844 -0.016716758 -0.1667287
00000000: 082e 17bd 6e3c 983d a00f 783d 4406 9bbc
00000010: c059 1d3b 0034 d5b8 fc8f b23d 0479 93bc
00000020: 1ceb acbd 8c4a 793d 8051 cc3b d627 3ebd
00000030: 80aa 9cbb 1611 953d 5c3c 7c3d 0081 b03d
00000040: 111d 0ebd 230d 97bd 3714 40bd 0c83 acbd
00000050: 6dc5 9bbd a0df a4bd 601c 9ebd 3811 7f3d
00000060: 9a04 843d 14bd 0f3d 780f 0f3d 72c2 8f3d
00000070: a816 793d 7434 d3bc 0c5f 383d 6c00 dbbc
00000080: 7cef b33c 5c22 8f3c 20a7 17bc f34c b7bd
00000090: da0b 44bd 002c b1bb 6ce4 a83c 7ae3 873d
000000a0: bacf 70bd f0ca c63c 4a1d 09bd cc2a 76bd
000000b0: 9423 b63d 75c7 4bbd 0945 73bd 6a03 8dbd
000000c0: d854 d53c 0a86 0bbd b46d 6b3d 97a7 37bd
000000d0: 2216 75bd feb9 5dbd c5ca b3bd 2065 c3bb
000000e0: db91 8abd b460 5dbd 4a24 0abd b746 a8bd
000000f0: 7006 813b a2fa a4bd e835 1b3d 2484 623d
00000100: b5f8 0cbd 8cbb d43c c0ee 443d 7af4 b3bd
00000110: 78ec 023c 341f afbc d71e aabd 646d 873d
00000120: 2adb 923d 807d ce3a 20b6 ca3b 2191 4bbd
00000130: 380d 4fbc 8ce6 b9bd 4067 133d 0d25 89bd
00000140: 3ca2 99bd 4afa 2ebd 54fc 1d3d 50fe bfbc
00000150: 0040 b53c 9c8f a7bd 083a 253d ee4f 5abd
00000160: 4091 bd3a 9688 80bd 4ae7 813d f87c 133c
00000170: 9166 4ebd 10be f83c 9714 b7bd b925 84bd
00000180: 205c 673c 902f b63b cdf4 38bd 9477 af3d
00000190: f09c 2cbc fdba b8bd 80c6 24bc 1010 4e3c
000001a0: d02c 81bb b4c5 1f3d c81a b6bd 187e cb3c
000001b0: e0e3 273c a805 4abc 117b 10bd 7991 6bbd
000001c0: 66f2 a3bd 4be4 75bd 882b 4fbc 647e 8a3d
000001d0: 690e 5dbd f413 59bd 0ac7 42bd 583e 0d3d
000001e0: 2235 bdba 7e9e 91bd ebaf 823c 44c3 923c
000001f0: dcdb 313d 41c6 75bd d70b 763d 3eeb 113c
00000200: cb7f fd3c c4b7 bcbd a969 e8bc eb5a e23b
00000210: b7e0 463d a047 133d 5b0f 113d 0798 8dbd
00000220: 6659 13be 61ab 0f3d f8f3 58be ef00 a6bc
00000230: 3f06 b8bd 6ae6 863d 1284 f6bc 1f3e 23be
00000240: 7abf dfbd 4a7a 383a 62b3 97bb 9ecc a5bd
00000250: 65ad 55bd 767b f4bc 92e7 10bd ed8d 04bd
00000260: 9e10 6c3c 6727 b7bb cc8b 8a3d cb13 18be
00000270: 62f7 5b3d fea7 1fbd 4b02 e1bd 9087 cdbd
00000280: bac5 6cbc f9f4 39be 2b70 f6bd 9518 cd3b
00000290: 219f 85bd fd23 c0bd 94c9 d7bc b206 083c
000002a0: 6c22 19bd 320e d9bd 7891 8ebc 40f5 953d
000002b0: 80f5 863d 1454 4c3d fc9f b7bd 326c 09be
000002c0: a916 7cbb 44b8 51bd 9e56 703d b497 33be
000002d0: 31b4 16bc 83a9 3d3d 05df 10bd b39f 95bd
000002e0: 0881 83bd 6461 583d 81f9 a9bc 9da4 b2bc
000002f0: 9a5f 94bd 97c3 59be dee9 2abc 27d9 63bd
00000300: 0108 49bd c02e 72bd 71d1 2cbe 5a80 1dbe
00000310: 7ce4 8dbd e6cc 723d 729b 91bc c23c d33b
00000320: d1c3 233d d32a 80bd 9e4d febc 7e0d 683d
00000330: 4bd2 093d 64b8 fabd 6707 aabd f24c 78bd
00000340: 0e75 29bd cef0 953c 6f1b 0d3d 04f1 703d
00000350: 42d9 b33d cc25 b0bd d9d2 273c 6be5 eebd
00000360: 0e07 3b3c e56e b8bc e2ca debd 68ed 25bd
00000370: c8e9 05bc 5212 853d 3bb0 19bc 3f0b 86bd
00000380: 087c a1bd 90f3 69bd d4ea adbc 26fb 1a3d
00000390: 8d21 cd3c dc7d 89bd 065b 643d 002d e939
000003a0: 21cf f4bd 0ac9 a1bd f623 5cbb e089 f2bc
000003b0: d72d b3bd 7671 943d 795e 5bbd ffab 563d
000003c0: 42f4 b63a 5d76 0d3d d068 48bc 99d1 20be
000003d0: f47c 38bd a4bb adbb 6ed3 cdbc f5f7 61bd
000003e0: 642b 943d de07 1bbe b535 eabd efaf edbc
000003f0: e7ed 88bc b6f6 04bd 95f1 88bc eeba 2abe

f6.bias f4 [84]
-0.05803009 0.03957464 0.01565257 -0.06610714 -0.083513595 0.04643031 0.04785695 0.06288457
-0.06132985 -0.056274626 -0.0013741022 -0.05590489 0.010545723 -0.062218543 -0.04383078 -0.022214627
-0.019005673 -0.012846332 0.025665136 0.008745768 0.06348625 -0.06533192 -0.09756106 0.08804604
-0.017169122 0.042677123 -0.048183627 -0.08226638 -0.08013475 -0.20130976 -0.033421036 0.032597743
-0.04209224 0.024704223 -0.04704191 -0.09060872 0.030928556 -0.06902548 -0.01254883 -0.09752275
0.05625728 -0.031899203 -0.042417765 -0.06156933 -0.071839064 -0.026428014 -0.042142734 -0.07170115
-0.15712643 -0.054635826 0.077066675 -0.008444503 0.0051661367 0.027148787 -0.02049914 -0.06357384
0.05626661 0.029502785 0.059937287 -0.14885074 -0.069476224 -0.34373266 -0.021363622 -0.072428614
-0.02060201 0.009074472 -0.04596224 0.05551415 -0.0362022 -0.07539722 -0.056285374 0.029139375
0.04261652 -0.025322584 -0.0060306014 -0.03852204 -0.107295595 -0.031420775 0.02568247 0.021004682
0.023905737 -0.04989914 -0.35081577 -0.081429735
00000000: f6b0 6dbd 0519 223d d239 803c 2e63 87bd
00000010: 2d09 abbd b52d 3e3d a605 443d a0c9 803d
00000020: 0235 7bbd 3980 66bd 381b b4ba 87fc 64bd
00000030: f8c7 2c3c dfd8 7ebd e787 33bd 73fb b5bc
00000040: c9b1 9bbc 6c79 52bc b13f d23c 694a 0f3c
00000050: 1405 823d becc 85bd 18ce c7bd 7b51 b43d
00000060: 42a6 8cbc 35ce 2e3d 325c 45bd 477b a8bd
00000070: b01d a4bd 2524 4ebe 7fe4 08bd 3685 053d
00000080: ea68 2cbd 8360 ca3c 05af 40bd 1191 b9bd
00000090: e25d fd3c 3b5d 8dbd 9c99 4dbc 02ba c7bd
000000a0: 096e 663d bda8 02bd 40be 2dbd 1f30 7cbd
000000b0: 5c20 93bd 907f d8bc dc9d 2cbd 0dd8 92bd
000000c0: c0e5 20be d1c9 5fbd 22d5 9d3d d05a 0abc
000000d0: b248 a93b 2267 de3c d0ed a7bc 0033 82bd
000000e0: d177 663d d3af f13c cd80 753d 546c 18be
000000f0: 8d49 8ebd bafd afbe c302 afbc 7455 94bd
00000100: 8cc5 a8bc 18ad 143c e742 3cbd ce62 633d
00000110: c248 14bd dc69 9abd 7e8b 66bd b3b5 ee3c
00000120: a98e 2e3d 4f71 cfbc 5a9c c5bb 49c9 1dbd
00000130: cbbd dbbd 12b3 00bd 0b64 d23c 0312 ac3c
00000140: f7d5 c33c 0a63 4cbd 209e b3be a2c4 a6bd

output_layer.weight f4 [10, 84]
-0.08055482 0.015861688 0.00525747 0.035619114 0.026915895 0.11743937 -0.09569019 0.061946046
-0.023665816 3.0450137 0.24490587 0.009378974 0.74530953 -0.03251991 -0.053294964 -0.07157307
-0.033201568 -0.018742746 -0.10128928 -0.018175691 0.35306373 -0.07913069 0.072297886 0.01980242
0.5295313 -0.034745526 0.055873983 -0.0011886114 0.876451 0.8778579 -0.036319464 -0.07458677
0.99918133 0.04798248 0.5700744 0.13382839 0.07260402 0.024166517 0.12809241 -0.05064854
0.05706463 0.052016735 -0.051999208 -0.008766158 0.03147074 0.11701789 -0.012191566 0.06278599
0.84057903 -0.02717915 -0.050417338 -0.04555127 0.10248164 -0.047098055 1.5198889 0.5081701
0.0022469803 0.02729027 0.03174461 0.32519946 -0.06335383 1.4139698 2.622917 0.53462857
-0.09715225 0.053435612 0.10875746 -0.030993916 -0.047091145 2.8227153 0.113617934 1.0782654
0.13344434 -0.06619198 3.179393 -0.058365904 2.8413346 0.0073085083 0.004506241 0.15799728
0.10153473 0.33887854 2.0765362 3.0855818 -0.055596564 -0.19001776 -0.61873865 0.063165784
0.0868198 -0.12533541 -0.068667516 0.1265826 0.03449654 1.3574827 0.09191767 -0.23898533
0.3736361 -0.1174952 0.057776775 -0.26362786 0.033027038 0.035607144 0.10532211 -0.51238286
-0.07674593 0.015200878 -0.23783523 -0.08607629 0.4242827 0.04439954 -0.6849971 -0.4863942
0.49041793 0.24790028 0.010083376 -0.12035246 0.5536431 0.049134355 0.47447854 0.087488
0.011306084 -0.49493963 -0.76464254 -0.18474779 -0.08118076 0.041603 -0.040856577 -0.5092133
-0.12767513 -0.39340147 -0.31532678 -0.020747945 0.39069298 0.069082946 0.019187607 -0.06705622
-0.17843775 0.06297821 0.8213582 0.25377494 -0.020670338 0.0544402 -0.06770205 0.22924411
0.013805109 0.4796082 1.4072834 -0.046605386 0.044549022 0.012445246 -0.3155385 -0.21979831
0.050049696 0.8811078 -0.009649144 0.50449437 -0.6435377 0.07541873 1.6079205 -0.108387835
1.3584605 -0.11699241 -0.015048964 -0.024086006 0.056901462 -0.9957701 1.1891541 1.5890961
-0.09638065 -0.020381074 0.093240306 0.081795044 -0.09717238 -0.011446011 -0.094992064 -0.03098489
-0.03484159 1.8913643 0.12538786 -0.06786325 0.31651506 0.06604206 -0.029717999 0.0069633727
0.02231232 -0.013938918 0.09048818 0.09838272 0.2022236 -0.04727477 -0.03582223 -0.03481012
0.35855246 -0.07915289 -0.036693573 -0.021624988 0.67439735 0.663177 -0.03408144 0.11226848
0.61026615 -0.050654862 0.28923795 0.034873303 -0.095463775 0.05544312 -0.02861613 -0.07798117
0.08331461 0.18790662 0.006134415 -0.016765026 -0.0685612 -0.08284808 0.08543235 -0.06026452
0.66440284 -0.072070636 -0.055035632 -0.00045616715 -0.085632406 -0.06740253 0.8480648 0.31163186
0.013295646 -0.045921814 0.0052443547 0.32241315 -0.043216944 0.97558576 1.7519505 0.29974183
0.08629044 -0.06434216 0.018751837 0.049670603 -0.07200722 1.7645144 -0.0844664 0.6457053
0.13070443 0.07982631 2.0407436 0.08742515 1.7864044 0.0049063335 0.038657244 -0.02052164
-0.10670549 0.09492418 1.4050456 2.0020278 0.052165784 0.1253993 0.021902014 -0.05847139
00000000: edf9 a4bd 5ff0 813c db46 ac3b 59e5 113d
00000010: b97e dc3c 0d84 f03d 38f9 c3bd 23bb 7d3d
00000020: d0de c1bc 81e1 4240 9bc8 7a3e 45aa 193c
00000030: 9bcc 3e3f 9933 05bd d24b 5abd e794 92bd
00000040: 5efe 07bd 638a 99bc c170 cfbd 30e5 94bc
00000050: c5c4 b43e 450f a2bd ea10 943d af38 a23c
00000060: 5d8f 073f 5351 0ebd 1edc 643d 2ecb 9bba
00000070: 185f 603f 4cbb 603f b8c3 14bd f3c0 98bd
00000080: 59ca 7f3f 4789 443d 65f0 113f 4f0a 093e
00000090: 6bb1 943d dcf8 c53c a82a 033e d874 4fbd
000000a0: 9abc 693d 800f 553d 1ffd 54bd ee9f 0fbc
000000b0: 76e7 003d 13a7 ef3d 22bf 47bc f195 803d
000000c0: 3030 573f cfa6 debc 6982 4ebd f893 3abd
000000d0: e5e1 d13d e4e9 40bd b88b c23f 7017 023f
000000e0: 1342 133b d88f df3c a306 023d 8b80 a63e
000000f0: a7bf 81bd f6fc b43f dfdd 2740 6bdd 083f
00000100: c2f7 c6bd 4ddf 5a3d 3bbc de3d f4e6 fdbc
00000110: a5e2 40bd 5ea7 3440 85b0 e83d 9a04 8a3f
00000120: a2a5 083e a98f 87bd 2d7b 4b40 1611 6fbd
00000130: 6dd8 3540 367c ef3b 17a9 933b 0aca 213e
00000140: 71f1 cf3d 7d81 ad3e f8e5 0440 2c7a 4540
00000150: 39b9 63bd 0494 42be a865 1ebf 105d 813d
00000160: 94ce b13d ed57 00be 8ea1 8cbd de9e 013e
00000170: 3e4c 0d3d fec1 ad3f 553f bc3d 92b8 74be
00000180: 3b4d bf3e 53a1 f0bd 57a7 6c3d 3bfa 86be
00000190: 5c47 073d ccd8 113d 1eb3 d73d 862b 03bf
000001a0: f82c 9dbd 1a0d 793c 148b 73be c448 b0bd
000001b0: 953b d93e 4bdc 353d f85b 2fbf a908 f9be
000001c0: 0f18 fb3e 92d9 7d3e bf34 253c 5a7b f6bd
000001d0: 8ebb 0d3f 1b41 493d daee f23e e92c b33d
000001e0: 273d 393c ba68 fdbe 9dbf 43bf 862e 3dbe
000001f0: 1942 a6bd e867 2a3d 3a59 27bd ce5b 02bf
00000200: 45bd 02be eb6b c9be 8372 a1be 98f7 a9bc
00000210: e908 c83e 5c7b 8d3d 542f 9d3c c554 89bd
00000220: 63b8 36be b8fa 803d 8844 523f caee 813e
00000230: d754 a9bc b0fc 5e3d 5fa7 8abd f8be 6a3e
00000240: d32e 623c 358f f53e dd21 b43f 4ae5 3ebd
00000250: 0979 363d 25e7 4b3c 438e a1be cf12 61be
00000260: e900 4d3d 4890 613f 7117 1ebc 8b26 013f
00000270: e3be 24bf 2375 9a3d 57d0 cd3f 71fa ddbd
00000280: 09e2 ad3f b799 efbd ee8f 76bc 0450 c5bc
00000290: 8211 693d caea 7ebf 3436 983f 8067 cb3f
000002a0: 3863 c5bd 36f6 a6bc c6f4 be3d 2984 a73d
000002b0: 5002 c7bd 0d88 3bbc 338b c2bd 06d4 fdbc
000002c0: 0eb6 0ebd 3a18 f23f ad65 003e e3fb 8abd
000002d0: 430e a23e 0f41 873d 2973 f3bc 012d e43b
000002e0: 54c8 b63c 0f60 64bc de51 b93d e17c c93d
000002f0: b413 4f3e 30a3 41bd 55ba 12bd 0e95 0ebd
00000300: 3094 b73e e91a a2bd 004c 16bd e326 b1bc
00000310: 4ea5 2c3f f8c5 293f fb98 0bbd 04ed e53d
00000320: 673a 1c3f 797b 4fbd ff16 943e 4fd7 0e3d
00000330: 8382 c3bd 5318 633d 606c eabc 97b4 9fbd
00000340: daa0 aa3d 986a 403e 3403 c93b cf56 89bc
00000350: d069 8cbd 41ac a9bd 28f7 ae3d eed7 76bd
00000360: 4e16 2a3f c599 93bd 0b6d 61bd b829 efb9
00000370: 0b60 afbd 560a 8abd c61a 593f 368e 9f3e
00000380: fbd5 593c 8318 3cbd d6d8 ab3b 5613 a53e
00000390: 4004 31bd fdbf 793f ea3f e03f c377 993e
000003a0: 0bb9 b03d d3c5 83bd 749d 993c 6773 4b3d
000003b0: 8578 93bd 9cdb e13f b8fc acbd f14c 253f
000003c0: 62d7 053e fa7b a33d 8b9b 0240 f50b b33d
000003d0: e6a8 e43f 4fc5 a03b 0f57 1e3d 001d a8bc
000003e0: 6888 dabd 9c67 c23d 89d8 b33f 3921 0040
000003f0: caab 553d ad68 003e da6b b33c b27f 6fbd

output_layer.bias f4 [10]
0.014066067 -0.01735937 0.047464684 0.008601075 -0.00327029 0.004897722 -0.017987667 -0.0011491243
0.050986364 -0.022549767
00000000: 5c75 663c 3d35 8ebc 546a 423d 86eb 0c3c
00000010: 5d52 56bb 127d a03b df5a 93bc 379e 96ba
00000020: 14d7 503d 4aba b8bc
